ws-titanic-classify/ModelStore/model-data/model-weights.pt (torch, 143359 bytes, 40 tensors)

embedders.embedders.embedder@tgt:t0/c0__cat.weight f4 [3, 3]
-0.32701895 0.3911478 1.0128558 -0.7330434 -1.8140297 -0.42316133 0.2371971 0.30766588
-1.295536
00000000: 076f a7be 8644 c83e 42a5 813f bba8 3bbf
00000010: 2032 e8bf 9aa8 d8be cce3 723e 6286 9d3e
00000020: 20d4 a5bf

embedders.embedders.embedder@tgt:t1/c1__cat.weight f4 [4, 4]
-0.48347843 -1.2966679 0.14048645 0.706569 1.3687736 0.6999573 -0.48351106 0.8030582
0.12889148 -1.132547 -1.2513453 0.011327157 0.2869783 0.28178903 0.6464581 -0.73895097
00000000: 7c8a f7be 37f9 a5bf aedb 0f3e b5e1 343f
00000010: f933 af3f 6730 333f c38e f7be 3995 4d3f
00000020: 21fc 033e 4df7 90bf 152c a0bf 8a95 393c
00000030: d2ee 923e a746 903e 477e 253f e42b 3dbf

embedders.embedders.embedder@tgt:t2/c2__cat.weight f4 [3, 3]
1.8025708 0.36288947 -2.640481 0.20777717 -2.3055375 0.4660686 -0.57374316 0.35901922
0.74589384
00000000: a4ba e63f a6cc b93e a4fd 28c0 8ac3 543e
00000010: ed8d 13c0 8ba0 ee3e d5e0 12bf 5ed1 b73e
00000020: e6f2 3e3f

embedders.embedders.embedder@tgt:t3/c3__cat.weight f4 [75, 10]
0.93112254 -0.56611365 0.13167822 -0.49944144 -1.0508072 -0.7695428 -0.13036135 -2.1308255
-1.0362846 -0.6508748 0.048597123 -0.12926574 -1.4387778 0.6416916 1.2522846 0.23585135
1.6918175 0.8538583 -1.0963012 -1.8934681 -1.5632077 -0.502431 0.84362686 0.21023665
-0.13782677 0.11046231 0.73592186 -0.5477719 1.2399926 -0.14911975 0.8216427 1.054196
-0.047451753 0.0023060823 -0.36855635 -0.46856183 -1.0722753 -0.2742201 -0.78481364 0.7853517
0.15985806 0.074797295 0.43664554 -0.85746217 1.5059998 -1.356104 1.0308847 -0.2658572
-2.340535 -0.84729254 2.2118332 0.49485677 0.33672214 1.0659148 -0.37306508 -1.641515
0.6153669 0.26767173 -0.8877438 0.2860868 -1.0088043 0.19825429 -0.21872532 1.305147
-0.8435001 0.0875038 0.3492824 -1.3970196 -0.8542452 -1.8615776 0.7632011 0.35611606
1.6940403 0.96866995 1.181694 -0.44799155 -0.8836336 0.7690437 -0.5274589 0.45574972
0.21835314 -0.08637602 0.32801014 0.357344 -0.55954194 -1.315592 0.74495566 1.2528982
1.753793 0.9805971 0.5049798 -0.29982919 -0.21576037 1.9558212 -2.058275 0.8804129
-1.0199426 1.8384106 -1.3434249 1.1007732 -0.9145415 -0.04173738 0.2087316 -2.0719516
0.0031339584 -0.14460365 -0.9011274 0.9449714 -1.5478464 0.328986 0.7559816 -0.4942506
-0.42590407 0.7083735 -0.045800503 2.1289952 -0.39457765 1.1235713 1.2372605 -0.1355561
-2.0616758 -1.2857794 1.1899416 -0.0036684317 -1.6142465 -0.6902515 -1.0178739 0.28367996
-0.2839571 0.06030212 1.0105891 0.13193668 0.17791569 0.13583103 -0.22791073 -0.070493266
0.7452648 -0.44552502 -1.8162518 0.6782389 0.26402014 -0.19066213 -1.2100183 0.8954137
-0.98037153 -0.45318666 -0.0630398 -0.86799043 -1.6439269 -0.29351467 1.9567711 -1.3480731
-0.70881706 0.6530459 -1.0284873 -0.6826814 0.12104489 -1.5593735 0.623642 -0.5287719
0.22728863 2.2204878 -1.3426845 0.15444152 1.3237133 0.8935868 0.13554114 0.21376477
-1.8113266 1.8401908 -0.1653477 -0.6114551 -0.28241345 -1.0675405 1.2079777 -0.70817477
0.1558927 1.1100316 -0.29091167 -0.7395565 0.31493324 -0.25469074 0.21058424 -0.071244724
-0.039994255 -0.06234201 -0.029140826 -0.14954636 0.33746716 0.6173564 0.2735129 1.2216245
-0.0038902124 -0.04725009 0.19685203 0.38996425 -1.6366804 -0.55301636 -0.097181745 0.09970061
-0.039321385 1.8661363 0.61033 -0.67462146 -1.1719953 1.0008144 1.5859029 1.3814404
0.16381621 -0.40239722 1.6431192 -0.6324463 0.8929556 -0.9992597 -1.2396855 -0.6009165
-0.20159002 1.528759 1.1279479 0.61232215 -0.50124806 0.32347846 1.5293449 -0.65086913
0.3651905 1.2326958 -0.7937381 -1.6287849 -1.396999 -0.10674157 0.9192218 -1.5521377
-1.7407409 -0.2038053 1.3597062 0.3538715 0.9176397 -1.1857206 -0.9727098 0.85169667
-0.957063 0.34564516 -0.83562493 -0.5599379 1.2877746 -0.3049143 -1.8963175 -0.7931187
1.1948578 -0.52489704 -0.8124713 -0.50384533 1.3453313 -0.160874 1.6325009 0.5425492
00000000: 0c5e 6e3f d3ec 10bf a8d6 063e cab6 ffbe
00000010: da80 86bf c200 45bf 727d 05be 725f 08c0
00000020: f9a4 84bf bb9f 26bf c70d 473d 3d5e 04be
00000030: df29 b8bf e745 243f dd4a a03f 0483 713e
00000040: 7a8d d83f 7596 5a3f 9953 8cbf 2a5d f2bf
00000050: 3117 c8bf 519f 00bf eef7 573f 4748 573e
00000060: 7622 0dbe 103a e23d 6065 3c3f c73a 0cbf
00000070: 14b8 9e3f d9b2 18be 2d57 523f e5ef 863f
00000080: c55c 42bd a421 173b 6bb3 bcbe 56e7 efbe
00000090: 5140 89bf 9466 8cbe 8ce9 48bf cf0c 493f
000000a0: d5b1 233e 532f 993d 0190 df3e a482 5bbf
000000b0: 9ac4 c03f d194 adbf 08f4 833f 6f1e 88be
000000c0: 53cb 15c0 2ae8 58bf ad8e 0d40 de5d fd3e
000000d0: d866 ac3e e56f 883f 6302 bfbe 2a1d d2bf
000000e0: af88 1d3f 450c 893e 2d43 63bf f879 923e
000000f0: 8020 81bf 2c03 4b3e 88f9 5fbe 0f0f a73f
00000100: 9fef 57bf 3135 b33d 25d5 b23e 8ad1 b2bf
00000110: d0af 5abf 2d48 eebf 2661 433f d854 b63e
00000120: 50d6 d83f c1fa 773f c041 973f 265f e5be
00000130: d035 62bf 0ce0 443f 8c07 07bf 0758 e93e
00000140: f797 5f3e e9e5 b0bd f2f0 a73e cbf5 b63e
00000150: 243e 0fbf 5265 a8bf 6ab5 3e3f f85e a03f
00000160: 4a7c e03f 6908 7b3f 5b46 013f 3683 99be
00000170: 49f0 5cbe 5958 fa3f c7ba 03c0 bd62 613f
00000180: 7b8d 82bf 0a51 eb3f 59f5 abbf 23e6 8c3f
00000190: 641f 6abf d1f4 2abd bdbd 553e db9a 04c0
000001a0: 1963 4d3b fb12 14be 49b0 66bf a5e9 713f
000001b0: d51f c6bf da70 a83e 0388 413f 6a0e fdbe
000001c0: 1910 dabe f757 353f 4f99 3bbd 7541 0840
000001d0: 1506 cabe 2fd1 8f3f 8d5e 9e3f 38cf 0abe
000001e0: 7ff2 03c0 6b94 a4bf 0250 983f 126a 70bb
000001f0: a19f cebf 53b4 30bf b149 82bf 803e 913e
00000200: d362 91be 5bff 763d fc5a 813f 691a 073e
00000210: 882f 363e 4a17 0b3e 6e61 69be c65e 90bd
00000220: adc9 3e3f db1b e4be f07a e8bf 11a1 2d3f
00000230: a62d 873e ef3c 43be e1e1 9abf d539 653f
00000240: a1f9 7abf 1508 e8be 031b 81bd 9f34 5ebf
00000250: 326c d2bf 8e47 96be 7a77 fa3f a98d acbf
00000260: 0975 35bf 042e 273f 79a5 83bf 35c4 2ebf
00000270: 62e6 f73d 8d99 c7bf 01a7 1f3f 985d 07bf
00000280: 5abe 683e 791c 0e40 16dd abbf eb25 1e3e
00000290: 706f a93f 1bc2 643f 4ccb 0a3e 27e5 5a3e
000002a0: 8dd9 e7bf 5f8b eb3f e850 29be 5288 1cbf
000002b0: 7f98 90be 2ba5 88bf 039f 9a3f f14a 35bf
000002c0: 56a2 1f3e 8415 8e3f 60f2 94be 9353 3dbf
000002d0: ee3e a13e d366 82be 65a3 573e c1e8 91bd
000002e0: 04d1 23bd 565a 7fbd beb8 eebc ae22 19be
000002f0: 7fc8 ac3e 120b 1e3f e209 8c3e 315e 9c3f
00000300: eff2 7ebb 4f89 41bd 9493 493e 65a9 c73e
00000310: be7e d1bf 7b92 0dbf 3907 c7bd d52f cc3d
00000320: 760f 21bd 8edd ee3f 963e 1c3f feb3 2cbf
00000330: f103 96bf b01a 803f defe ca3f 0ad3 b03f
00000340: 70bf 273e 0207 cebe bb51 d23f 00e8 21bf
00000350: bd98 643f 7ccf 7fbf 04ae 9ebf aad5 19bf
00000360: 9d6d 4ebe 60ae c33f 9960 903f 25c1 1c3f
00000370: cb51 00bf f89e a53e 93c1 c33f 5c9f 26bf
00000380: 40fa ba3e fac8 9d3f 6c32 4bbf 067c d0bf
00000390: ddd0 b2bf 539b dabd 1f52 6b3f 73ac c6bf
000003a0: 99d0 debf 56b2 50be da0a ae3f a52e b53e
000003b0: 6fea 6a3f b1c5 97bf 8203 79bf cb08 5a3f
000003c0: 1502 75bf 67f8 b03e 84eb 55bf 1758 0fbf
000003d0: ccd5 a43f ba1d 9cbe 88ba f2bf d409 4bbf
000003e0: 1af1 983f a75f 06bf 1efe 4fbf 02fc 00bf
000003f0: d133 ac3f 27bc 24be caf5 d03f 81e4 0a3f

embedders.embedders.embedder@tgt:t4/c4__cat.weight f4 [8, 8]
1.3237435 -0.44984832 -1.3036611 0.68833596 0.41537076 0.34686622 -0.030684484 -0.2580865
1.6314689 -1.2251246 0.08937372 -0.5620448 -0.39624944 -0.73556757 0.9837641 0.33738583
-1.8198869 2.0961168 0.9498106 -1.0703684 -1.1015812 -0.10189549 0.6625748 1.0361605
0.11227611 -1.3280879 -0.51523113 -0.33004493 1.0847718 0.00306546 -1.5335537 -0.4683229
-0.9945776 0.58815914 0.2330632 0.66820425 0.96076727 0.11048388 -0.18403317 2.2877574
1.2352273 0.6620458 -0.80176425 1.7578353 1.8889761 0.7665643 -0.69596285 0.08151375
-0.0929049 -0.6398521 -1.5472227 1.0141194 0.21970683 -0.34622094 -1.0387491 -0.71421665
1.9819363 0.13374116 0.279856 1.0099055 0.037957434 -0.16350172 -2.371413 -0.7872156
00000000: 6d70 a93f 8552 e6be 5ede a6bf c936 303f
00000010: 7aab d43e 7398 b13e 075e fbbc ea23 84be
00000020: f9d3 d03f e2d0 9cbf 9209 b73d 2be2 0fbf
00000030: 35e1 cabe 284e 3cbf f7d7 7b3f d6bd ac3e
00000040: 0ef2 e8bf c726 0640 ca26 733f d501 89bf
00000050: 9d00 8dbf 95ae d0bd 819e 293f e8a0 843f
00000060: 04f1 e53d c9fe a9bf 30e6 03bf a6fb a8be
00000070: cdd9 8a3f e2e5 483b 7d4b c4bf 05c8 efbe
00000080: a39c 7ebf 9991 163f 1fa8 6e3e 6f0f 2b3f
00000090: d8f4 753f 5f45 e23d 3173 3cbe 9e6a 1240
000000a0: ee1b 9e3f d57b 293f 6c40 4dbf bf00 e13f
000000b0: f8c9 f13f 8f3d 443f 9f2a 32bf aef0 a63d
000000c0: ed44 bebd 59cd 23bf 650b c6bf aace 813f
000000d0: d4fa 603e df43 b1be bbf5 84bf e7d6 36bf
000000e0: 17b0 fd3f 71f3 083e 4949 8f3e 9544 813f
000000f0: 4179 1b3d ff6c 27be 3bc5 17c0 f686 49bf

embedders.embedders.embedder@tgt:t5/c5__cat.weight f4 [9, 9]
-2.0118299 1.7216501 -0.040103316 0.56793576 0.054093815 -0.3228685 -0.9541631 0.90033835
-0.54261744 -0.46536994 0.24205938 0.40197793 -0.02307223 1.3481735 1.5780176 0.12344696
-0.5723602 -1.0621469 2.581747 -0.21342966 -0.039117914 -1.1100079 0.4399083 0.13069378
0.01980064 0.11254516 0.6816563 -0.4043542 -0.50111187 -0.6088347 -0.9981284 0.4414311
0.39596203 0.93304497 0.59397733 0.7814526 -1.0143641 0.20683476 0.4308657 -1.1238352
2.213057 1.2461609 -1.6185738 -0.2872215 -1.3073397 -2.3851063 -1.2491438 -0.57414526
-1.6445789 0.16341895 -0.39005852 -0.9585517 -1.9402951 -1.5583754 0.6044217 0.9903391
-0.41371444 1.858972 1.7819715 -0.8097648 -0.6934777 2.185085 1.202075 -1.443372
-0.86409 -0.17911325 0.19692038 -0.9393579 0.70360214 0.7696608 1.580965 0.89087963
-0.4606345 -0.18846539 -1.9059885 0.36036462 0.08685866 -0.36622635 1.0221033 -0.14049087
0.50178564
00000000: d2c1 00c0 085f dc3f 6043 24bd 3d64 113f
00000010: 7a91 5d3d 054f a5be 0844 74bf 937c 663f
00000020: fae8 0abf f844 eebe 6ade 773e 0dd0 cd3e
00000030: f901 bdbc f390 ac3f 7bfc c93f c2d1 fc3d
00000040: 3386 12bf 6ef4 87bf 583b 2540 4e8d 5abe
00000050: 1b3a 20bd bd14 8ebf a93b e13e 97d4 053e
00000060: f434 a23c 147e e63d 0781 2e3f 8407 cfbe
00000070: de48 00bf 97dc 1bbf 5885 7fbf 4203 e23e
00000080: 89bb ca3e 09dc 6e3f e60e 183f 470d 483f
00000090: afd6 81bf 7ecc 533e 6e9a dc3e d5d9 8fbf
000000a0: baa2 0d40 3382 9f3f 6d2d cfbf b20e 93be
000000b0: e856 a7bf 95a5 18c0 f2e3 9fbf 2ffb 12bf
000000c0: 9081 d2bf 4c57 273e c0b5 c7be a563 75bf
000000d0: 975b f8bf d878 c7bf 61bb 1a3f dd86 7d3f
000000e0: 61d2 d3be cbf2 ed3f a417 e43f bf4c 4fbf
000000f0: c187 31bf 6fd8 0b40 98dd 993f 6ac0 b8bf
00000100: 0135 5dbf 7769 37be 7fa5 493e c279 70bf
00000110: 451f 343f 7d08 453f 105d ca3f b010 643f
00000120: 49d8 ebbe 12fd 40be 6ef7 f3bf b681 b83e
00000130: f4e2 b13d 0582 bbbe 48d4 823f d7dc 0fbe
00000140: 0675 003f

embedders.embedders.embedder@tgt:t6/c6__cat.weight f4 [96, 12]
-1.1181221 1.1831517 0.73472774 0.07633436 0.9597002 0.3501594 0.9436129 0.59957343
-0.7221954 0.5932318 -2.6030164 0.93217707 -0.23374157 -0.75118923 0.18778946 -0.9082506
-1.3652236 -0.18727899 -1.759348 -2.2970295 -0.13424836 -0.6574737 -2.1963444 0.093457654
-0.2881434 0.14195313 0.8413048 0.2894684 -0.97170186 1.6897098 1.1306156 -0.69483024
1.1761732 -1.0222523 0.39323932 -1.935482 -1.5848438 0.17136519 0.06861341 -0.6077583
0.47199777 -0.2209242 0.63605565 0.08884438 1.0738192 1.1582345 -0.5475096 0.50155056
-0.05272388 -0.78619677 -0.69658595 -1.2565299 -0.8513529 -0.4759571 -0.97193366 2.1516898
-1.4311444 0.7441252 1.1755874 -0.2437026 1.1989189 -0.06294528 -0.6705124 -0.86785877
-1.4063631 1.8106326 1.0673653 1.0450823 0.7003832 0.9715123 -0.8068874 -0.5880943
-1.3193345 0.96410483 -1.070923 -0.12236691 -1.022118 0.62985307 -1.4335206 -1.8333776
-0.279071 1.2020591 0.99350643 -1.8718379 1.0054711 2.0455282 -0.13882953 -0.21490294
-1.932832 0.10949794 -0.05494657 -1.1753837 -0.34625682 0.043589715 1.471315 -2.0445516
1.0386838 1.5094547 0.074493155 -0.6310161 1.9228468 1.9289596 1.1998643 1.9354885
-0.7899571 -1.456406 -0.22747588 1.8645781 -0.50483376 0.21887444 0.41806543 0.08644514
0.4389112 -0.13819908 2.5666077 -2.2341309 -0.26752812 0.43694097 0.4886011 0.06654357
1.2475138 -1.066083 -0.5840928 -0.10385527 -1.093764 0.7330112 0.72061026 2.2824523
0.7884871 0.8232473 0.18702574 1.6999938 -2.0844781 -1.6716255 0.7206263 -0.024910707
-0.6885635 0.34801036 0.7843583 0.0920566 -2.139824 0.4367418 1.6271111 -0.24090198
0.1283443 0.6707533 -0.5034969 0.14902571 -0.92133707 -1.1206118 1.0614462 -1.095822
0.18871613 1.1103591 -0.63948286 2.0548537 -0.47608936 -1.0406996 -0.7626548 -0.7991149
-0.4840876 2.027625 0.40385798 0.25529903 0.08411645 -0.42148316 -2.2608378 0.11784769
-0.6033925 -0.026117908 -0.2780507 0.8077047 -1.3830549 1.3504087 0.31972072 2.0387185
0.42884088 0.27064434 -0.45944485 0.037388243 1.3702682 0.18817891 -1.6498272 1.0992949
-0.7387093 0.74751574 -0.39694223 2.0685813 0.45223957 -0.94932514 0.5776297 -0.29000148
0.27650827 -1.052766 -0.99300057 -0.88965374 -0.24336241 1.2322084 0.03855068 1.2513185
0.11082934 -0.8144823 0.17293851 -0.41265678 0.1008901 0.16227935 1.3447341 1.8157539
0.35221973 1.4766314 1.8023123 0.9390097 -0.4521138 0.14679283 -0.7260414 -0.40203786
-0.7845402 1.4613674 -0.42688608 0.8551551 1.1087607 1.0238614 -0.19268632 2.507114
-0.4973606 0.599176 -0.32031727 -0.14086317 0.94642967 -1.0127486 0.5751637 0.786846
-0.011665317 -0.797242 -0.64110905 -0.65468836 -0.041880246 2.5155954 -0.43459648 -2.338603
1.7615914 -1.6204351 1.525081 -0.25400063 0.4745075 -1.537032 1.9449888 -1.7058312
-1.6406981 -0.32154366 0.27068728 0.80135804 1.3301504 -0.05922162 -1.0324166 -0.95568264
00000000: a01e 8fbf 8471 973f 1e17 3c3f 3055 9c3d
00000010: eaae 753f 1848 b33e 9d90 713f a57d 193f
00000020: cce1 38bf 0ade 173f d297 26c0 28a3 6e3f
00000030: f359 6fbe f04d 40bf e14b 403e 1c83 68bf
00000040: a6bf aebf 10c6 3fbe 5132 e1bf 8802 13c0
00000050: 6778 09be 3250 28bf e890 0cc0 ba66 bf3d
00000060: 8887 93be 295c 113e c05f 573f 3435 943e
00000070: 74c1 78bf 6948 d83f 03b8 903f 65e0 31bf
00000080: d88c 963f 2ad9 82bf aa56 c93e e0bd f7bf
00000090: 29dc cabf 5b7a 2f3e 3085 8c3d 0c96 1bbf
000000a0: b1a9 f13e f439 62be 8bd4 223f 0bf4 b53d
000000b0: e872 893f 0741 943f 9729 0cbf 9e65 003f
000000c0: fff4 57bd 3144 49bf 7553 32bf f9d5 a0bf
000000d0: 43f2 59bf a6b0 f3be a5d0 78bf 49b5 0940
000000e0: bd2f b7bf fd7e 3e3f a679 963f 2d8d 79be
000000f0: 2d76 993f 74e9 80bd b3a6 2bbf fe2b 5ebf
00000100: b503 b4bf cfc2 e73f 6d9f 883f 42c5 853f
00000110: 504c 333f 08b5 783f 2c90 4ebf 598d 16bf
00000120: f4df a8bf 93cf 763f 0114 89bf 819b fabd
00000130: c3d4 82bf 0d3e 213f 9a7d b7bf 1eac eabf
00000140: 65e2 8ebe 13dd 993f 7056 7e3f 6298 efbf
00000150: 47b3 803f efe9 0240 5429 0ebe 840f 5cbe
00000160: 0a67 f7bf 7540 e03d a80f 61bd f972 96bf
00000170: 9348 b1be 218b 323d 0d54 bc3f efd9 02c0
00000180: 97f3 843f d035 c13f de8f 983d 458a 21bf
00000190: d81f f63f 26e8 f63f 2795 993f 16be f73f
000001a0: a13a 4abf 836b babf 70ef 68be 7faa ee3f
000001b0: c93c 01bf 9f20 603e ac0c d63e 260a b13d
000001c0: f8b8 e03e 0f84 0dbe 4d43 2440 00fc 0ec0
000001d0: 72f9 88be bab6 df3e ec29 fa3e ff47 883d
000001e0: 88ae 9f3f 6875 88bf 1b87 15bf 12b2 d4bd
000001f0: 7500 8cbf 9fa6 3b3f ea79 383f b313 1240
00000200: 4ada 493f 56c0 523f ad83 3f3e 6699 d93f
00000210: 1768 05c0 d3f7 d5bf f77a 383f 8a11 ccbc
00000220: b345 30bf 6a2e b23e b5cb 483f 2c88 bc3d
00000230: e0f2 08c0 9f9c df3e 2d45 d03f 02af 76be
00000240: b06c 033e 7db6 2b3f 2ce5 00bf 329a 183e
00000250: bfdc 6bbf 3570 8fbf 78dd 873f e543 8cbf
00000260: cd3e 413e 3f20 8e3f 26b5 23bf b982 0340
00000270: fcc1 f3be a535 85bf 583d 43bf cb92 4cbf
00000280: 54da f7be 9cc4 0140 79c6 ce3e 8eb6 823e
00000290: 3f45 ac3d a4cc d7be 91b1 10c0 215a f13d
000002a0: ee77 1abf 39f5 d5bc a95c 8ebe bcc5 4e3f
000002b0: f107 b1bf 31da ac3f 6fb2 a33e 5d7a 0240
000002c0: 0891 db3e e591 8a3e 5b3c ebbe 6a24 193d
000002d0: f364 af3f f9b1 403e 8a2d d3bf b2b5 8c3f
000002e0: 0d1c 3dbf 315d 3f3f 033c cbbe a363 0440
000002f0: f28b e73e f906 73bf 8adf 133f 137b 94be
00000300: 7e92 8d3e 09c1 86bf 4935 7ebf 59c0 63bf
00000310: ff33 79be 01b9 9d3f 51e7 1d3d 342b a03f
00000320: 7efa e23d e981 50bf cb16 313e c047 d3be
00000330: 789f ce3d 8f2c 263e 3f20 ac3f a06a e83f
00000340: 2556 b43e 4202 bd3f 2bb2 e63f f162 703f
00000350: 767b e7be dc50 163e d9dd 39bf e8d7 cdbe
00000360: a0d7 48bf 160e bb3f d090 dabe 72eb 5a3f
00000370: dfeb 8d3f e40d 833f 904f 45be 8e74 2040
00000380: 0ca6 febe 9963 193f a000 a4be 6f3e 10be
00000390: 3749 723f bfa1 81bf ee3d 133f bd6e 493f
000003a0: e31f 3fbc 0d18 4cbf b91f 24bf a899 27bf
000003b0: 9f8a 2bbd 84ff 2040 6e83 debe acab 15c0
000003c0: d47b e13f 6b6a cfbf db35 c33f 5f0c 82be
000003d0: a6f2 f23e 77bd c4bf 65f5 f83f ad58 dabf
000003e0: 6502 d2bf 5fa1 a4be 8697 8a3e cd25 4d3f
000003f0: 5e42 aa3f 5f92 72bd 3a26 84bf 9ea7 74bf

embedders.embedders.embedder@tgt:t7/c7__cat.weight f4 [5, 5]
-1.812269 -0.31518206 -0.8913693 -1.641572 -0.14388727 -0.829153 -0.9462508 0.21874127
-0.319568 0.38060862 -1.8996855 0.028079882 0.52055436 1.9598596 -1.1295079 1.6702582
-1.1752769 1.605825 0.35837516 0.6533068 0.29476973 1.3879915 0.08858685 0.03914928
-1.5839646
00000000: 6ef8 e7bf 8b5f a1be c730 64bf 081f d2bf
00000010: 2f57 13be 5f43 54bf 7e3d 72bf b6fd 5f3e
00000020: 6b9e a3be 22df c23e e528 f3bf c807 e63c
00000030: 0d43 053f aedc fa3f b793 90bf 05cb d53f
00000040: 796f 96bf ac8b cd3f f37c b73e 1d3f 273f
00000050: 0fec 963e b5a9 b13f 066d b53d ff5a 203d
00000060: 5abf cabf

regressors.regressors.regressor@tgt:t0/c0__cat.0.weight f4 [16, 54]
-0.10076372 0.05342311 -0.0011178134 -0.014355186 0.04842603 -0.04643831 -0.036875516 -0.29154778
0.25882512 0.18831171 0.044720534 -0.100281715 0.01778148 0.00049055857 0.15562144 -0.038337577
-0.12215975 0.16278848 -0.08068579 0.011155962 -0.027232422 0.032578543 0.102889575 -0.18275829
0.08725617 0.022653783 0.1831847 0.1944866 -0.15519966 0.11333484 -0.022591446 0.09766613
0.030844329 0.15897506 0.0983793 -0.024331272 -0.170091 -0.10048373 0.04390292 -0.12091641
-0.09066475 0.0757913 0.06464528 0.0047837626 0.017784486 -0.08374017 0.07461682 -0.09539417
0.11639761 -0.03124552 0.20442963 -0.013443479 0.0492694 -0.13934983 -0.11850627 -0.044565562
-0.010406585 0.119650185 -0.07946878 -0.103800274 0.11702645 -0.003853047 -0.25146246 0.23198166
-0.010847951 -0.047069345 -0.1604923 0.10677052 0.13568422 0.10456183 -0.021606121 -0.012586134
-0.009945048 0.01767284 0.09884311 0.04354991 0.184959 -0.1443639 -0.23146924 -0.015878903
0.1877968 0.051960003 -0.0022898605 0.062545426 0.17200622 -0.1332895 0.23151465 0.11744772
0.07419202 -0.08731923 -0.18982814 -0.07092948 -0.05305302 -0.11111494 0.07164133 -0.11846635
-0.050429337 -0.1523473 -0.028238308 -0.13596116 -0.025265187 -0.07730439 -0.13330819 -0.17077601
0.07893918 0.112842746 0.139197 -0.20762187 -0.097669065 0.07740013 0.043918844 0.26070467
0.02621702 -0.13646407 -0.072733045 -0.033463165 -0.052572746 0.10054503 0.08816294 0.12163853
-0.14337766 0.13829896 0.05300318 0.049181897 -0.037097696 -0.014294151 -0.14956631 -0.2154196
-0.07634526 -0.096493706 0.040939398 -0.22810523 -0.22410876 -0.24154234 0.050124165 0.2624456
-0.063100316 0.10658442 -0.024814231 -0.21628055 0.122921236 0.16722718 0.30160546 0.045987662
-0.18904121 -0.05187333 0.013839356 -0.15064308 -0.015535594 0.11914365 0.00088481983 0.18462087
0.09672626 -0.071008444 -0.027393388 0.16131534 -0.03200035 -0.06608243 0.20338206 0.25912702
0.2522879 -0.14675988 0.009623462 0.043219615 0.11468599 0.032144956 -0.015653016 -0.077234544
0.14805171 0.33267087 -0.1386124 -0.046284225 -0.014567475 -0.09817968 0.015904514 -0.069542
0.14440088 0.04086335 0.08785934 0.07118629 0.033383466 0.06404797 -0.05719039 -0.09425853
-0.056467842 -0.15119964 0.01679791 -0.08357548 0.05711813 -0.12802337 0.11097725 -0.14323021
-0.016292691 0.11109457 0.03553237 0.08806053 0.056920186 -0.11807294 -0.025259161 0.039210998
0.006335861 0.008043977 -0.11526063 -0.10447936 -0.047892094 -0.076115064 -0.06427696 0.015685998
-0.16867815 0.086010754 0.07241975 0.05425663 -0.020615889 0.09490545 0.15089074 -0.05868501
0.0014854203 -0.037660252 0.0034420919 0.07511797 0.035337918 0.31797087 -0.12086831 -0.44128212
0.0018836414 0.16291024 0.045003526 -0.0013601977 -0.021136612 0.07304883 0.16941676 0.10502848
0.11310439 0.12225991 -0.14666723 -0.076124646 0.021105332 0.02165366 -0.06289561 0.2195749
0.0940786 0.0031750372 -0.12692672 0.15987201 0.10319787 -0.04609873 0.004740238 -0.10383469
-0.030033836 0.026026957 0.06686058 0.114028804 0.03335547 -0.12725657 -0.101146065 0.15048184
00000000: 365d cebd 31d2 5a3d 9883 92ba 0432 6bbc
00000010: 5f5a 463d 1936 3ebd c80a 17bd c045 95be
00000020: ba84 843e c9d4 403e e12c 373d 8060 cdbd
00000030: 77aa 913c d498 003a 3a5b 1f3e dd07 1dbd
00000040: e42e fabd 06b2 263e 973e a5bd 7fc7 363c
00000050: 8716 dfbc 1471 053d c5b7 d23d fd24 3bbe
00000060: 5db3 b23d 6d94 b93c c594 3b3e 7f27 473e
00000070: a9ec 1ebe 191c e83d b211 b9bc 2e05 c83d
00000080: 3fad fc3c 5cca 223e 167b c93d 6052 c7bc
00000090: 562c 2ebe 6aca cdbd 8cd3 333d 06a3 f7bd
000000a0: 71ae b9bd 7838 9b3d bf64 843d 1cc1 9c3b
000000b0: c5b0 913c f77f abbd b4d0 983d 055e c3bd
000000c0: df61 ee3d 9bf6 ffbc 0056 513e 0a42 5cbc
000000d0: b6ce 493d b9b1 0ebe 6ab3 f2bd 618a 36bd
000000e0: 6280 2abc 280b f53d 87c0 a2bd 3d95 d4bd
000000f0: 90ab ef3d 6783 7cbb b0bf 80be 9a8c 6d3e
00000100: 9bbb 31bc c9cb 40bd 1858 24be 81aa da3d
00000110: cef0 0a3e 8324 d63d 52ff b0bc 1236 4ebc
00000120: 8ef0 22bc a2c6 903c 426e ca3d 6461 323d
00000130: e465 3d3e 21d4 13be 4606 6dbe 7914 82bc
00000140: ce4d 403e 03d4 543d 7c11 16bb d117 803d
00000150: 6622 303e 0b7d 08be 2d12 6d3e 6e88 f03d
00000160: fcf1 973d 6dd4 b2bd 4f62 42be 7a43 91bd
00000170: 204e 59bd 3b90 e3bd b1b8 923d 7c9e f2bd
00000180: fe8e 4ebd ee00 1cbe 0654 e7bc 6739 0bbe
00000190: f0f8 cebc c451 9ebd f181 08be e8df 2ebe
000001a0: ddaa a13d 191a e73d a989 0e3e d49a 54be
000001b0: b806 c8bd f683 9e3d 3fe4 333d 157b 853e
000001c0: 13c5 d63c 3dbd 0bbe 10f5 94bd ac10 09bd
000001d0: 8556 57bd 8dea cd3d c68e b43d 9f1d f93d
000001e0: 98d1 12be 3e9e 0d3e dd19 593d f572 493d
000001f0: c1f3 17bd 0432 6abc e927 19be f596 5cbe
00000200: e75a 9cbd 7e9e c5bd 12b0 273d 6b94 69be
00000210: c47c 65be e056 77be ff4e 4d3d 455f 863e
00000220: bd3a 81bd ef48 da3d 3747 cbbc a678 5dbe
00000230: 21be fb3d 9a3d 2b3e 086c 9a3e 8f5d 3c3d
00000240: 0594 41be 2179 54bd 77be 623c 2e42 1abe
00000250: 0189 7ebc 9601 f43d 41f3 673a 410d 3d3e
00000260: 6b18 c63d e06c 91bd 1968 e0bc d92f 253e
00000270: cd12 03bd 3a56 87bd 6343 503e 4cac 843e
00000280: e12b 813e 3948 16be baab 1d3c 0d07 313d
00000290: 7de0 ea3d 6eaa 033d c13a 80bc 252d 9ebd
000002a0: de9a 173e d653 aa3e 69f0 0dbe 8794 3dbd
000002b0: 6bac 6ebc 6e12 c9bd 2f4a 823c 096c 8ebd
000002c0: d3dd 133e 5460 273d 99ef b33d 1eca 913d
000002d0: 1abd 083d 952b 833d 7840 6abd 9e0a c1bd
000002e0: d34a 67bd 14d4 1abe c59b 893c 9f29 abbd
000002f0: b3f4 693d 8f18 03be 0a48 e33d f1aa 12be
00000300: 4078 85bc 8d85 e33d 648a 113d 1459 b43d
00000310: 2425 693d 3ad0 f1bd 4dec cebc b69b 203d
00000320: 0e9d cf3b e3ca 033c c40d ecbd 46f9 d5bd
00000330: 802a 44bd 37e2 9bbd a4a3 83bd ec7f 803c
00000340: f7b9 2cbe 6826 b03d ce50 943d 333c 5e3d
00000350: a7e2 a8bc ca5d c23d 1a83 1a3e b15f 70bd
00000360: 6fb2 c23a a341 1abd b894 613b 73d7 993d
00000370: 7ebe 103d 14cd a23e ce89 f7bd bbef e1be
00000380: 84e4 f63a f1d1 263e 9e55 383d a948 b2ba
00000390: b026 adbc a09a 953d 967b 2d3e 2c19 d73d
000003a0: 46a3 e73d 6763 fa3d ef2f 16be 3de7 9bbd
000003b0: 17e5 ac3c 0463 b13c 6acf 80bd 3ed8 603e
000003c0: 48ac c03d 4914 503b 14f9 01be 7db5 233e
000003d0: 6859 d33d 06d2 3cbd 0054 9b3b 48a7 d4bd
000003e0: 8509 f6bc 7c36 d53c 33ee 883d ef87 e93d
000003f0: bf9f 083d 8c4f 02be ab25 cfbd e917 1a3e

regressors.regressors.regressor@tgt:t0/c0__cat.0.bias f4 [16]
0.24259415 0.41548985 0.520694 -0.07370367 0.37571514 -0.12818235 0.34411538 0.53644437
-0.044790726 0.3610596 -0.13865928 0.21517344 0.6088291 -0.03528061 0.14548603 0.4283715
00000000: 9a6a 783e 16bb d43e 344c 053f f3f1 96bd
00000010: bc5d c03e 3c42 03be e42f b03e 6b54 093f
00000020: 7b76 37bd cedc b83e b3fc 0dbe 6d56 5c3e
00000030: 39dc 1b3f 6782 10bd 4afa 143e 8253 db3e

regressors.regressors.regressor@tgt:t1/c1__cat.0.weight f4 [16, 54]
-0.27576646 -0.15118156 -0.08874233 -0.020384004 0.037569515 -0.07592957 0.0032999818 -0.24998593
-0.07692109 0.04068428 0.0043718005 -0.038445227 -0.057370055 0.023165347 -0.08905148 0.054909553
-0.1647234 0.022590494 0.035556514 0.07783476 0.020279232 0.03799327 0.1001503 -0.1501957
-0.0539176 -0.15369356 -0.0064246464 0.04140136 -0.0076511935 -0.016320677 -0.0120598 -0.19572185
0.21363834 0.073635116 0.04804762 -0.0069121565 0.047102384 0.091461584 -0.022445101 -0.022502337
0.067646444 -0.013143811 0.03732598 0.32055435 0.0359429 -0.089123204 0.20280874 -0.017232342
0.13193431 0.12581836 0.25819084 0.10616816 0.0754071 -0.1406832 -0.23784563 -0.0039487462
0.07311514 0.11572051 0.042641554 -0.032311246 0.104285836 0.002596928 -0.014187157 0.10027936
0.08364572 -0.049278487 -0.11244421 0.12679397 0.017401434 -0.080726 0.22583033 0.07075638
-0.06990288 -0.032572266 -0.04675514 -0.055557374 -0.18011504 0.12862599 0.10346722 -0.102155276
-0.0788389 -0.10478073 0.09031998 -0.0088980775 0.04879602 -0.023301167 0.14765963 -0.02748693
-0.0225294 0.08968188 0.007950226 -0.048371114 0.08416811 -0.020373173 0.0077778753 -0.24500981
0.070412405 0.01261606 0.0039911517 -0.16701032 0.23425329 0.102606915 -0.044154216 0.103786916
0.06260535 0.18857643 -0.018825598 0.027021684 0.010284845 0.07457237 -0.12698032 0.011811306
0.11547738 -0.093103714 -0.022150822 -0.0077888924 -0.1231224 0.016911877 0.06700798 -0.028001238
0.07603548 -0.13616423 0.043984894 -0.092946544 -0.06715169 0.10615663 -0.12026215 0.016258756
-0.034667768 0.072173916 0.16261598 -0.09339496 -0.062300876 -0.016650861 -0.016791996 -0.051015362
-0.22742045 0.012269634 -0.026811823 -0.037910845 0.13684328 0.08329555 0.19456637 -0.027631672
-0.11799511 0.031287514 -0.11637637 -0.104077764 0.29499876 0.056726888 -0.09794196 -0.17693917
-0.044884607 0.2535211 -0.29048607 -0.13366 -0.1869706 -0.00016612715 0.04197355 -0.012343004
0.08475219 0.005141201 -0.09402571 -0.058229703 -0.09342603 0.012904228 0.011559103 -0.05467826
0.0009737905 -0.17953385 -0.00798651 0.15423761 0.010088592 0.1448439 0.036121305 0.041954543
0.15813988 0.03552292 0.052574076 0.033823043 -0.13558713 -0.025040142 0.03165164 -0.014998186
0.17891642 -0.0006083922 0.009368968 -0.041981146 0.1771273 0.036001727 -0.06184946 -0.024706854
-0.030503754 0.016037479 -0.012976599 0.06418396 -0.120971575 -0.101692595 -0.0598093 0.230784
0.16593161 0.055272315 -0.12276906 -0.16700958 0.2523303 0.045492183 -0.16274574 -0.14005703
0.105622984 0.22547214 -0.14623362 0.1265389 0.12663831 0.13999681 -0.0058833878 0.054223258
0.06827447 -0.07462503 0.11434355 0.01281807 0.1286658 -0.002117902 -0.062273346 0.16869934
0.01850063 -0.1345605 0.019698301 0.07665764 -0.16346987 0.06875463 0.15593924 -0.07635096
-0.012467361 -0.01874545 -0.065571986 -0.0968017 0.023357825 0.07363582 -0.11490688 0.21820755
0.04550785 0.14213362 -0.20803784 0.0672433 -0.049846984 -0.14311591 0.0033907783 0.08460455
0.013180593 0.11468855 0.09477712 -0.025294343 -0.043498896 0.09422606 0.28190997 -0.099541046
00000000: 4331 8dbe 57cf 1abe 8abe b5bd 5bfc a6bc
00000010: 7ee2 193d f680 9bbd 8244 583b 50fc 7fbe
00000020: ce88 9dbd 8fa4 263d 5241 8f3b be78 1dbd
00000030: ddfc 6abd 41c5 bd3c 9f60 b6bd d7e8 603d
00000040: 40ad 28be b30f b93c b5a3 113d d567 9f3d
00000050: a220 a63c d59e 1b3d 9a1b cd3d e7cc 19be
00000060: b4d8 5cbd d861 1dbe d785 d2bb 7994 293d
00000070: ddb6 fabb f1b2 85bc 7896 45bc 4f6b 48be
00000080: 02c4 5a3e 02ce 963d 95cd 443d 5f7f e2bb
00000090: 6eee 403d 3650 bb3d cade b7bc d256 b8bc
000000a0: 388a 8a3d 2459 57bc 20e3 183d b31f a43e
000000b0: dd38 133d 3a86 b6bd 18ad 4f3e d72a 8dbc
000000c0: ca19 073e 87d6 003e 9731 843e b16e d93d
000000d0: 0a6f 9a3d 420f 10be ce8d 73be 7c64 81bb
000000e0: 64bd 953d e0fe ec3d e9a8 2e3d cc58 04bd
000000f0: d093 d53d 3931 2a3b 4071 68bc 445f cd3d
00000100: 724e ab3d 3dd8 49bd 2649 e6bd 47d6 013e
00000110: 748d 8e3c ac53 a5bd 1140 673e b9e8 903d
00000120: 3e29 8fbd 7f6a 05bd 5182 3fbd 2190 63bd
00000130: 1470 38be 88b6 033e 9fe6 d33d c936 d1bd
00000140: 4a76 a1bd 4897 d6bd aff9 b83d 3ec9 11bc
00000150: 56de 473d 17e2 bebc 1634 173e 452c e1bc
00000160: 948f b8bc 22ab b73d aa41 023c ca20 46bd
00000170: 5460 ac3d a4e5 a6bc 8cdd fe3b dae3 7abe
00000180: 6134 903d 97b3 4e3c 35c8 823b c104 2bbe
00000190: 18e0 6f3e 9323 d23d 0ddb 34bd 3c8e d43d
000001a0: 3c37 803d 2e1a 413e 2438 9abc 945c dd3c
000001b0: c481 283c 66b9 983d 2107 02be 3584 413c
000001c0: 687f ec3d 29ad bebd a475 b5bc f739 ffbb
000001d0: 9927 fcbd c78a 8a3c 7b3b 893d da62 e5bc
000001e0: 7db8 9b3d a36e 0bbe 8129 343d c25a bebd
000001f0: d386 89bd a668 d93d 014c f6bd 1531 853c
00000200: caff 0dbd ebcf 933d ce84 263e db45 bfbd
00000210: 342f 7fbd 6367 88bc 5e8f 89bc 7cf5 50bd
00000220: e8e0 68be 9306 493c 78a4 dbbc 6748 1bbd
00000230: a520 0c3e db96 aa3d 683c 473e d15b e2bc
00000240: 6ca7 f1bd 5627 003d bc56 eebd b926 d5bd
00000250: 140a 973e 745a 683d cb95 c8bd 8b2f 35be
00000260: ecd8 37bd 85cd 813e 97ba 94be 2bde 08be
00000270: 3975 3fbe 6b32 2eb9 75ec 2b3d 503a 4abc
00000280: 8e92 ad3d 8577 a83b 8d90 c0bd 4582 6ebd
00000290: 2556 bfbd 416c 533c 6462 3d3c 50f6 5fbd
000002a0: f945 7f3a b9d7 37be dad9 02bc 77f0 1d3e
000002b0: 9f4a 253c f651 143e eff3 133d 87d8 2b3d
000002c0: 6cef 213e 7b80 113d ea57 573d 088a 0a3d
000002d0: 5ad7 0abe fc20 cdbc 26a5 013d f4ba 75bc
000002e0: de35 373e 827c 1fba 4d80 193c 6cf4 2bbd
000002f0: dc60 353e 8c76 133d dc55 7dbd 0766 cabc
00000300: 02e3 f9bc 0861 833c cd9b 54bc e172 833d
00000310: f2bf f7bd 3544 d0bd 99fa 74bd a452 6c3e
00000320: fae9 293e 3965 623d 586e fbbd 8f04 2bbe
00000330: 7031 813e 0356 3a3d d2a6 26be 1c6b 0fbe
00000340: dd50 d83d 2be2 663e 44be 15be 6a93 013e
00000350: 79ad 013e 535b 0f3e 6fc9 c0bb 3519 5e3d
00000360: 7cd3 8b3d 02d5 98bd f32c ea3d e202 523c
00000370: f8c0 033e 80cc 0abb 5612 7fbd 85bf 2c3e
00000380: a28e 973c 3aca 09be 555e a13c aefe 9c3d
00000390: a564 27be 3acf 8c3d 89ae 1f3e e45d 9cbd
000003a0: e743 4cbc 0f90 99bc 9b4a 86bd f83f c6bd
000003b0: e958 bf3c 60ce 963d 4c54 ebbd cd71 5f3e
000003c0: 7066 3a3d 7a8b 113e df07 55be dbb6 893d
000003d0: 5a2c 4cbd fa8c 12be d237 5e3b 2645 ad3d
000003e0: 6af3 573c d5e1 ea3d 821a c23d 1536 cfbc
000003f0: e62b 32bd 98f9 c03d 8156 903e 2ddc cbbd

regressors.regressors.regressor@tgt:t1/c1__cat.0.bias f4 [16]
0.41550526 0.03705258 0.04544902 0.3122154 0.20871146 -0.027663194 0.43956265 0.32411623
0.50246 -0.054857727 0.29306602 -0.07669708 0.034680672 0.31670868 0.32390758 0.26720864
00000000: 1bbd d43e 72c4 173d c028 3a3d b2da 9f3e
00000010: 75b8 553e ec9d e2bc 5b0e e13e 90f2 a53e
00000020: 38a1 003f 7fb2 60bd c00c 963e 5c13 9dbd
00000030: 520d 0e3d a427 a23e 37d7 a53e 92cf 883e

regressors.regressors.regressor@tgt:t2/c2__cat.0.weight f4 [16, 54]
-0.40685615 -0.22561982 0.17235427 -0.043279544 0.04710017 -0.10307781 -0.08126341 -0.039570715
0.041888982 0.07177325 -0.12625746 -0.06447275 -0.027681714 0.0076042395 0.013151077 -0.040419444
0.117507406 0.09387722 0.04361191 -0.09684862 -0.02321631 -0.09070378 0.032530647 0.025008993
-0.03524531 -0.025932856 0.005656751 0.050589193 0.015269333 0.067421235 0.031736843 0.08604842
0.09958435 0.1181021 -0.09959704 -0.016425049 0.061150074 -0.088101126 -0.012626571 -0.06662207
0.0022293387 -0.13739836 0.04376069 -0.05624094 -0.04669283 -0.01981905 0.044414733 0.09168364
0.0074181645 -0.13997698 0.14220767 -0.14805683 -0.061825514 -0.046745252 -0.30676976 -0.22643806
0.08254166 -0.014431497 0.0155296475 0.038517345 -0.008234161 -0.013081321 -0.13346626 0.06278946
0.1806768 0.02367489 -0.090666376 0.1278902 0.0069230846 -0.10293259 -0.04409779 -0.09009653
0.040420458 0.07500342 -0.039848555 -0.112299226 -0.09211157 -0.058099724 -0.06362842 -0.1518738
0.10561739 -0.021848595 0.025403356 0.10063889 0.15733026 0.1499125 -0.028271679 -0.07194218
0.076836795 -0.13652276 -0.13109744 -0.0030164772 0.087583244 0.07827406 -0.069276 0.024811456
-0.05707343 0.058696795 -0.052537058 0.0607091 0.10908595 0.079858035 -0.020203719 0.067742564
-0.017427232 -0.1117448 0.016755117 -0.070058234 0.14441197 0.12235117 -0.22290535 0.11690103
-0.12422084 -0.04440585 0.003733796 0.03817787 -0.10775332 -0.040773313 0.053001773 -0.0741325
-0.018783446 0.18538041 -0.09951612 0.012621383 -0.08362236 -0.027860817 0.14431672 -0.007272122
-0.08588061 -0.1040806 0.06601753 0.10523308 0.13774467 0.024577824 -0.18434109 -0.13772346
-0.08228566 0.027656527 -0.022568624 -0.11970837 -0.112129256 0.05720949 -0.21515755 0.12033778
-0.04664057 -0.17361422 0.07557003 0.08597323 -3.476032e-05 0.063637294 -0.012569463 0.022591623
0.052463964 -0.062656 0.08492015 -0.04440592 -0.05824985 -0.080215156 -0.036908243 -0.040246643
0.12286685 0.026965342 0.07447649 -0.0013088145 -0.39569485 0.14522825 0.10151353 -0.15969726
-0.18067548 -0.004903716 0.064279765 -0.1281051 0.12928724 -0.04024576 -0.14938521 -0.06888836
0.026303465 0.065784216 0.038248602 0.19503993 0.16363344 0.003850995 -0.12762646 -0.040909808
0.13329928 -0.074525245 -0.15291895 -0.07899779 0.2291721 0.1922597 -0.091405325 0.07537578
-0.063209124 -0.21244961 0.2630889 0.063105255 0.17835881 0.057497133 0.05988746 0.15210988
-0.08780119 -0.2057745 0.22204952 -0.08270299 0.05944178 0.120268814 0.094730034 -0.110503845
-0.0066453842 -0.007547161 0.08578998 0.09559612 0.11022758 0.2237808 0.12760031 -0.24892598
0.12721603 0.01685584 -0.021530876 0.052096955 -0.019873837 -0.007235173 0.005577078 -0.093039386
0.12445466 0.12196468 -0.06330178 0.13869086 0.094241284 0.025865385 0.08293296 -0.06265417
-0.0045947395 -0.047681626 0.018958274 -0.1115317 -0.087925665 -0.021612668 -0.033331264 0.0034133475
-0.077103674 -0.105090104 0.13015506 -0.020250762 0.11240077 0.0019273025 0.17255148 -0.06686428
0.08089705 0.117207736 -0.19042233 0.07530472 -0.012325013 -0.0019827515 0.05855392 0.123689406
00000000: 734f d0be e208 67be a37d 303e e445 31bd
00000010: 1cec 403d 751a d3bd 6e6d a6bd e714 22bd
00000020: c893 2b3d dbfd 923d a349 01be 4a0a 84bd
00000030: c3c4 e2bc fc2c f93b 9d77 573c dc8e 25bd
00000040: b9a7 f03d b342 c03d 67a2 323d 9258 c6bd
00000050: 2230 bebc e7c2 b9bd db3e 053d a9df cc3c
00000060: 635d 10bd 2471 d4bc 445c b93b 9d36 4f3d
00000070: 392c 7a3c 2514 8a3d 7efe 013d 273a b03d
00000080: e1f2 cb3d 84df f13d 88f9 cbbd d38d 86bc
00000090: 8078 7a3d 5d6e b4bd addf 4ebc 2771 88bd
000000a0: 191a 123b 28b2 0cbe 693e 333d e65c 66bd
000000b0: fb40 3fbd 8f5b a2bc 39ec 353d a2c4 bb3d
000000c0: 1314 f33b 2056 0fbe e39e 113e 369c 17be
000000d0: c03c 7dbd f377 3fbd ed10 9dbe 61df 67be
000000e0: 9a0b a93d 1672 6cbc 1070 7e3c 5dc4 1d3d
000000f0: 93e8 06bc 0953 56bc 61ab 08be c397 803d
00000100: 5703 393e d8f1 c13c 4baf b9bd a6f5 023e
00000110: 0bdb e23b 52ce d2bd e29f 34bd 8884 b8bd
00000120: ec8f 253d 659b 993d 3d38 23bd 23fd e5bd
00000130: fea4 bcbd faf9 6dbd 9e4f 82bd ce84 1bbe
00000140: ee4d d83d d3fb b2bc b31a d03c c31b ce3d
00000150: 2f1b 213e aa82 193e 029a e7bc 6c56 93bd
00000160: 9c5c 9d3d 9fcc 0bbe 683e 06be 17b0 45bb
00000170: d85e b33d 264e a03d 93e0 8dbd 6541 cb3c
00000180: d4c5 69bd 0d6c 703d 1931 57bd 1baa 783d
00000190: 7468 df3d 9c8c a33d 4582 a5bc 9dbc 8a3d
000001a0: 8ec3 8ebc 75da e4bd 0742 893c b17a 8fbd
000001b0: bbe0 133e 4093 fa3d 4d41 64be cf69 ef3d
000001c0: 7f67 febd e9e2 35bd b4b2 743b 6660 1c3d
000001d0: c6ad dcbd eb01 27bd 6318 593d c8d2 97bd
000001e0: bedf 99bc 5dd4 3d3e 1ccf cbbd ebc9 4e3c
000001f0: 3342 abbd 5e3c e4bc c3c7 133e fb4a eebb
00000200: 2ce2 afbd 3628 d5bd 3334 873d 7184 d73d
00000210: f00c 0d3e 6f57 c93c e9c3 3cbe 6107 0dbe
00000220: 6285 a8bd f18f e23c d6e1 b8bc a929 f5bd
00000230: 06a4 e5bd 8054 6a3d 4352 5cbe a773 f63d
00000240: 2f0a 3fbd edc7 31be 76c4 9a3d bc12 b03d
00000250: 9ccb 11b8 4554 823d 26f0 4dbc 1112 b93c
00000260: 74e4 563d ca51 80bd 9eea ad3d fbe2 35bd
00000270: 6597 6ebd d847 a4bd 192d 17bd aad9 24bd
00000280: 9da1 fb3d 6ce6 dc3c 2187 983d 878c abba
00000290: 8498 cabe b7b6 143e 53e6 cf3d ae87 23be
000002a0: fe02 39be 5aaf a0bb 1ca5 833d fc2d 03be
000002b0: e063 043e bdd8 24bd 70f8 18be 5715 8dbd
000002c0: 5d7a d73c e0b9 863d 91aa 1c3d 8cb8 473e
000002d0: 868f 273e fa60 7c3b 83b0 02be 0b91 27bd
000002e0: 9b7f 083e b1a0 98bd c996 1cbe 98c9 a1bd
000002f0: 17ac 6a3e badf 443e b732 bbbd 9e5e 9a3d
00000300: c973 81bd 648c 59be 97b3 863e 543d 813d
00000310: b1a3 363e 1d82 6b3d 8e4c 753d b1c2 1b3e
00000320: 1cd1 b3bd 8db6 52be f360 633e 2f60 a9bd
00000330: 3979 733d 7f4f f63d d201 c23d d74f e2bd
00000340: 86c1 d9bb 2d4e f7bb a8b2 af3d e6c7 c33d
00000350: ffbe e13d cb26 653e a8a9 023e 74e6 7ebe
00000360: eb44 023e 4215 8a3c 8561 b0bc 9e63 553d
00000370: 75ce a2bc 0815 edbb ecbf b63b 6f8b bebd
00000380: 16e2 fe3d 9ec8 f93d 5da4 81bd fa04 0e3e
00000390: 9301 c13d a5e3 d33c c1d8 a93d d450 80bd
000003a0: 788f 96bb cf4d 43bd 624e 9b3c bb6a e4bd
000003b0: 5f12 b4bd 0d0d b1bc 5d86 08bd 78b2 5f3b
000003c0: 88e8 9dbd 7b39 d7bd 5e47 053e ede4 a5bc
000003d0: 6032 e63d 8a9d fc3a 56b1 303e 24f0 88bd
000003e0: 5aad a53d 9c0a f03d 12fe 42be 5c39 9a3d
000003f0: daee 49bc 0df1 01bb 3cd6 6f3d df50 fd3d

regressors.regressors.regressor@tgt:t2/c2__cat.0.bias f4 [16]
-0.02646092 0.30027357 0.004798855 0.5394206 -0.14131981 0.3060304 0.5385502 0.4978301
0.29557338 -0.0045734136 0.24801384 0.17497173 0.48400733 0.4955679 0.5205641 -0.13115838
00000000: 92c4 d8bc 75bd 993e b73f 9d3b 7817 0a3f
00000010: 24b6 10be 04b0 9c3e 6dde 093f 96e3 fe3e
00000020: 6555 973e 93dc 95bb 57f7 7d3e ca2b 333e
00000030: cfcf f73e 13bb fd3e b043 053f 624e 06be

regressors.regressors.regressor@tgt:t3/c3__cat.0.weight f4 [64, 54]
0.07620082 -0.0660783 -0.040821146 0.08025639 0.03848559 0.07325636 -0.16923206 0.10768762
0.071756564 -0.009826856 0.04069273 0.01828916 -0.044661105 -0.1147341 -0.11165435 0.031479187
0.059079178 0.049924616 0.11154767 -0.05891744 0.08269829 -0.104633704 0.11616389 -0.046461735
-0.08123322 0.12327918 -0.02986971 -0.18481155 0.09096115 -0.01785683 0.045099102 0.07560684
0.040198565 0.06231291 0.1382239 -0.070900254 -0.09056172 0.17351998 -0.002773692 0.22225845
-0.021881312 -0.03150225 -0.10814192 0.08230714 -0.06984484 -0.1211147 -0.124744594 0.11667783
-0.16118185 0.011107766 -0.0759209 -0.097229436 0.010507995 -0.0056915274 0.025951484 -0.06779753
-0.08823206 -0.061875258 -0.06582385 0.035018057 -0.24472536 -0.13070835 -0.05712523 -0.006619011
0.0060593467 -0.13124855 -0.012878 0.020909209 0.107672215 -0.097298145 0.0807204 -0.041132364
-0.079022996 0.11893836 0.13801225 0.09852978 0.0017686982 0.085889034 0.028670087 -0.009133862
0.08238693 0.061036967 0.19154882 -0.30687246 -0.27887642 -0.29141632 -0.085397035 -0.11497265
0.019812997 0.03313144 0.0921771 0.2934715 -0.24051523 -0.13855316 -0.020259045 0.045016233
-0.05043663 -0.015368332 -0.007191155 0.13745603 0.28375047 -0.09789632 0.03545072 0.30549437
-0.08880132 0.14803644 -0.06444046 -0.07645 -0.029708263 0.09935329 -0.026287874 -0.05616674
0.009975187 -0.08307701 -0.11704116 0.039441112 -0.06857663 0.06612209 -0.07191893 0.055751134
-0.10821795 -0.06505505 -0.1249338 0.014004931 -0.05582882 -0.052065216 -0.013358901 -0.09638384
0.11207249 0.026239332 -0.037912432 0.010134545 -0.034789726 -0.026967866 0.102139406 -0.10433682
-0.1416777 0.14169659 0.006158521 0.1372517 0.01151457 0.13904712 -0.031864982 0.01837079
-0.0145605 0.019711511 0.18548748 -0.033130355 -0.039626036 -0.14270975 -0.15374342 -0.11890248
0.07982369 0.03601131 -0.0110999895 0.07449561 0.05255212 0.07128356 0.025501039 -0.00824189
-0.035458848 -0.05394433 0.093947515 0.07609653 0.13872406 -0.032624904 -0.034547728 0.07859464
-0.0024450074 -0.055889256 0.011567994 0.04931534 -0.055527814 -0.05119471 0.1114951 -0.105266966
-0.09902728 -0.11764486 -0.099790715 0.13215992 0.017080832 0.0536124 -0.06940881 0.06893659
-0.043396648 -0.05097854 0.021844082 -0.114931025 0.18844564 0.02718935 -0.10019682 -0.011637103
-0.09709021 0.10466581 -0.031706076 -0.113600284 -0.038312644 0.041762616 0.01930072 0.07868458
0.07297415 -0.05404138 -0.0070880856 -0.119529314 0.1399794 -0.13574287 -0.056234166 0.090008475
0.043840475 0.120843336 0.039126895 -0.13441776 -0.18119684 0.23081906 0.18638764 0.0213772
-0.094148256 -0.0996983 0.071458906 -0.10694214 -0.007307568 0.10281208 0.043543138 -0.143855
-0.12235101 0.1278213 -0.039042316 -0.043041687 -0.018783761 0.13418142 0.13039945 0.050176114
0.018683562 0.10976039 -0.010496743 0.11578784 0.04888439 0.042002946 -0.043667395 0.1577836
-0.023714399 0.0070980764 -0.09379449 -0.1083022 -0.13609059 -0.007481391 -0.021041747 0.14967987
0.086879835 -0.029496063 0.09238233 0.09110121 -0.11936116 0.13492656 -0.13024554 0.005617096
00000000: 2d0f 9c3d 0f54 87bd 1334 27bd 765d a43d
00000010: 11a3 1d3d 6e07 963d 2b4b 2dbe 548b dc3d
00000020: 1bf5 923d d200 21bc 6cad 263d 26d3 953c
00000030: 90ee 36bd b6f9 eabd 09ab e4bd 52f0 003d
00000040: 02fd 713d c17d 4c3d 1b73 e43d 6a53 71bd
00000050: b95d a93d 324a d6bd 55e7 ed3d a94e 3ebd
00000060: 9a5d a6bd cb79 fc3d 52b1 f4bc 3d3f 3dbe
00000070: d749 ba3d 7d48 92bc d6b9 383d c2d7 9a3d
00000080: 40a7 243d d23b 7f3d 918a 0d3e 2734 91bd
00000090: 6c78 b9bd 39af 313e d4c6 35bb b897 633e
000000a0: 7040 b3bc 8108 01bd 8379 ddbd a590 a83d
000000b0: d00a 8fbd fc0a f8bd 187a ffbd c9f4 ee3d
000000c0: db0c 25be 59fd 353c 6b7c 9bbd 3a20 c7bd
000000d0: ba29 2c3c fe7f babb 3598 d43c 6ed9 8abd
000000e0: 03b3 b4bd e970 7dbd a8ce 86bd 186f 0f3d
000000f0: 4999 7abe 69d8 05be 25fc 69bd 4ae4 d8bb
00000100: 7c8d c63b 0566 06be 3ffe 52bc ca49 ab3c
00000110: 4083 dc3d 4044 c7bd bd50 a53d 697a 28bd
00000120: cfd6 a1bd f495 f33d 1553 0d3e fbc9 c93d
00000130: aad3 e73a 97e6 af3d 88dd ea3c 32a6 15bc
00000140: 7bba a83d e601 7a3d 6025 443e 631e 9dbe
00000150: e4c8 8ebe 8534 95be a4e4 aebd c876 ebbd
00000160: de4e a23c d5b4 073d 59c7 bc3d e541 963e
00000170: a049 76be e1e0 0dbe 4cf6 a5bc f162 383d
00000180: a496 4ebd 75cb 7bbc c8a3 ebbb 46c1 0c3e
00000190: be47 913e de7d c8bd c634 113d c269 9c3e
000001a0: 77dd b5bd dd96 173e 5cf9 83bd d191 9cbd
000001b0: be5e f3bc bd79 cb3d ab59 d7bc 180f 66bd
000001c0: f76e 233c 4824 aabd 47b3 efbd 018d 213d
000001d0: e771 8cbd 056b 873d 3b4a 93bd 4d5b 643d
000001e0: 5fa1 ddbd 953b 85bd 4bdd ffbd f074 653c
000001f0: c3ac 64bd 5642 55bd 4bdf 5abc e464 c5bd
00000200: 4386 e53d def3 d63c 114a 1bbd 5d0b 263c
00000210: ac7f 0ebd b7eb dcbc 772e d13d 8bae d5bd
00000220: f613 11be e918 113e 6bcd c93b b68b 0c3e
00000230: 9ba7 3c3c 5e62 0e3e db84 02bd 577e 963c
00000240: 2a8f 6ebc 097a a13c 6ef0 3d3e b2b3 07bd
00000250: e94e 22bd 8122 12be ea6e 1dbe 2583 f3bd
00000260: 9a7a a33d 9880 133d bbdc 35bc 2891 983d
00000270: e440 573d 1dfd 913d 8ee7 d03c fe08 07bc
00000280: 4c3d 11bd bbf4 5cbd 8e67 c03d 7fd8 9b3d
00000290: ae0d 0e3e b1a1 05bd eb81 0dbd 3af6 a03d
000002a0: 6b3c 20bb 22ec 64bd af87 3d3c e2fe 493d
000002b0: 2271 63bd 8bb1 51bd 8b57 e43d 3596 d7bd
000002c0: d1ce cabd caef f0bd 135f ccbd ee54 073e
000002d0: 1aed 8b3c ad98 5b3d 3526 8ebd a02e 8d3d
000002e0: afc0 31bd e0ce 50bd 5cf2 b23c f560 ebbd
000002f0: e5f7 403e 33bc de3c fe33 cdbd 8ca9 3ebc
00000300: 3bd7 c6bd 075b d63d 3bde 01bd 44a7 e8bd
00000310: b8ed 1cbd 470f 2b3d 8b1c 9e3c 6225 a13d
00000320: 7973 953d 7e5a 5dbd 2c43 e8bb c9cb f4bd
00000330: c356 0f3e 2e00 0bbe cc55 66bd 5d56 b83d
00000340: 1292 333d b67c f73d 8643 203d cfa4 09be
00000350: aa8b 39be d55b 6c3e 67dc 3e3e 3d1f af3c
00000360: cdd0 c0bd 9f2e ccbd 0c59 923d 7b04 dbbd
00000370: 5374 efbb 248f d23d 4a5a 323d ba4e 13be
00000380: 2b93 fabd 96e3 023e d6ea 1fbd 7b4c 30bd
00000390: 67e0 99bc db66 093e 6f87 053e 7885 4d3d
000003a0: 450e 993c 0eca e03d 88fa 2bbc 2d22 ed3d
000003b0: 003b 483d 480b 2c3d 95dc 32bd 0692 213e
000003c0: b344 c2bc fb96 e83b 5317 c0bd 8bcd ddbd
000003d0: 555b 0bbe 7526 f5bb be5f acbc ae45 193e
000003e0: 0eee b13d baa1 f1bc f232 bd3d 4593 ba3d
000003f0: a073 f4bd 302a 0a3e 165f 05be 9e0f b83b

regressors.regressors.regressor@tgt:t3/c3__cat.0.bias f4 [64]
0.3634743 0.12873828 0.26279578 0.32643375 0.36030218 0.2708011 0.17875746 -0.05970352
0.40850434 0.24569796 0.086081944 0.44474015 0.2619891 0.4436128 0.21700582 0.3721703
-0.06990451 0.33848706 0.23245108 0.38623604 0.296083 0.2348257 0.2558554 0.26185805
0.4579421 0.033163384 0.2132874 0.273508 0.41778845 0.28503898 0.0039452817 0.3150625
0.122835904 0.358726 0.24507676 0.4316 0.12213463 0.21061002 0.35048956 0.25736535
0.31321797 -0.013678053 0.025232455 0.18726365 0.16303438 0.38843825 0.17984714 0.16448018
0.34232375 0.33011147 0.24632134 0.36029842 -0.08218125 0.13770157 0.25385097 0.019270113
0.18216862 -0.022968514 0.36940256 0.35901058 0.17223106 0.06410801 0.16218095 0.14400722
00000000: 4e19 ba3e f8d3 033e 2b8d 863e 5322 a73e
00000010: 8779 b83e 71a6 8a3e 320c 373e ae8b 74bd
00000020: 7b27 d13e 3f98 7b3e bb4b b03d fbb4 e33e
00000030: 6f23 863e 3821 e33e c636 5e3e 1b8d be3e
00000040: 192a 8fbd 2d4e ad3e a807 6e3e bbc0 c53e
00000050: 3198 973e 2676 703e 7bff 823e 4212 863e
00000060: 6377 ea3e 54d6 073d 0368 5a3e 3e09 8c3e
00000070: 5ee8 d53e a1f0 913e 6c47 813b df4f a13e
00000080: 6491 fb3d efaa b73e 67f5 7a3e adfa dc3e
00000090: b921 fa3d 27aa 573e 5e73 b33e 64c5 833e
000000a0: 1b5e a03e ea19 60bc 4bb4 ce3c 0bc2 3f3e
000000b0: 7cf2 263e 61e1 c63e d929 383e 7e6d 283e
000000c0: 0f45 af3e 5f04 a93e a93b 7c3e 0979 b83e
000000d0: a54e a8bd a401 0d3e c1f8 813e 5bdc 9d3c
000000e0: 698a 3a3e 7728 bcbc 5522 bd3e 3cd0 b73e
000000f0: 575d 303e 0f4b 833d c312 263e a176 133e
