ws-titanic-unbalanced-classify/ModelStore/model-data/model-weights.pt (torch, 116031 bytes, 40 tensors)

embedders.embedders.embedder@tgt:t0/c0__cat.weight f4 [3, 3]
00000000: 28c8 d43f 9e2d cc3f 4976 053f 52b5 c93e
00000010: ca21 a1bf 413a 89be c724 6cbf 8cba 633f
00000020: 9d36 313c
1.6623583 1.5951421 0.52133614 0.3939615 -1.2588437 -0.26802257 -0.9224362 0.8895652
0.0108162435

embedders.embedders.embedder@tgt:t1/c1__cat.weight f4 [4, 4]
00000000: 1a4a f3be 5369 b23f 9a87 afbe 2392 8dbf
00000010: 3d21 e63f 5e9d 9ebe d93c cfbf 4471 acbf
00000020: ff2d f3bd cf0f ea3e c2aa b43f 7f92 acbf
00000030: 693b 0c3f 05fc 373f 7833 0e3f 7f34 273f
-0.47517473 1.3938392 -0.34283143 -1.1060222 1.7978894 -0.30979437 -1.6190444 -1.3472066
-0.118740074 0.45715186 1.4114611 -1.3482207 0.5477815 0.71868926 0.55547285 0.6531448

embedders.embedders.embedder@tgt:t2/c2__cat.weight f4 [3, 3]
00000000: 5b99 bebe d075 ecbf 2cc9 553f 2b3e 05c0
00000010: d151 113f 5ad2 6fbf 1edf 09bf b74f c53e
00000020: 4ae0 54bf
-0.37226376 -1.8473454 0.8351009 -2.0819194 0.56765467 -0.93680346 -0.53856075 0.3853738
-0.8315474

embedders.embedders.embedder@tgt:t3/c3__cat.weight f4 [65, 10]
00000000: 4ed2 b73e 643a 2bc0 6a24 413d 5318 af3f
00000010: 0419 06c0 59ae 353f c70d f43e 8939 af3e
00000020: c16b 2a3d bbef d0be 2a2e 1d3e bf99 063d
00000030: eb76 b1bd 1988 54bf bbe5 c73e 16de e03f
00000040: 1f1a 9fbe b14d b1bf 5d74 acbd 7eb5 cfbf
00000050: a50f 2c3f dfe3 143f 8e8d 8e3e a6ce f83e
00000060: 89a1 60bd abe4 6cbf e837 76bb bd54 e0bf
00000070: 9ca7 df3e 826a 7a3d 1fff 793f 083f 563e
00000080: 161e 2fc0 2cae 813f f428 51be 2b6d e43e
00000090: 79ea 673e ea74 af3e 587d 613f 427f 313f
000000a0: 38b3 b1be 0d0f 0e3f 84e8 0bc0 0630 ab3f
000000b0: 92ca 2fbf a31f 383f f660 e43e bd04 49bf
000000c0: 7fab 85bf a6b6 2cbf ec98 b73e 8668 ea3f
000000d0: 0dec e93e e13b 93be 5128 6abf d46b 903e
000000e0: ffb9 ce3d fb8f fc3e bd4c 883e 8cdf cd3e
000000f0: 284a de3c 1548 ebbf 4509 a93e a23c 083f
00000100: 5393 753f f94e a2bf 3b11 5b3f 7f25 61be
00000110: 8887 5d3f 9500 debf 738f ad3e 23ea bfbf
00000120: 002a c6be 0096 3f3f 2035 edbe 4650 503e
00000130: bbb8 593e 8e52 5dbe 65ef c93f 6004 ff3f
00000140: 6bb0 ddba 467f 20be 3728 0040 65f3 42be
00000150: 3aef d0be 3580 173f 290f 0bc0 5f6d 713c
00000160: 90cf 04bf 0dbd d9bf 1614 4e3f 764d 12be
00000170: 75b7 f63f 78a2 2abf 3b33 48bf 0d5d 263f
00000180: 628e 06bd e865 843f 92b8 613f 2c99 a1bf
00000190: 6061 a1bf c875 24bf e056 73bf ab27 80bf
000001a0: 2036 ea3e 1d09 82bf 3a1f 453e 0fd3 0440
000001b0: 1c74 7dbc 5bae d03f c602 47be 97b1 e0bd
000001c0: c18c 093f aff0 1fbf 00b3 5a3f d81b f03f
000001d0: d974 adbe 50d7 d3bf f5f0 e23f bf6a c13e
000001e0: 56fe 6dbf 1922 d53f f6b9 c3bf 91c4 8ebf
000001f0: 5f6a acbe 7624 853f b914 86bf 1bd3 e3bf
00000200: f645 a53f b1a9 1e3f d5d6 b73e 0211 a53f
00000210: f273 40be 9d24 0e3e 70a7 7d3f 58cd 0e3e
00000220: e51e 1dbf 43c9 b7be 9fe8 883f 3ae1 813d
00000230: 5eae 703c c3a1 40be 1f34 c6bf 0e0d 8d3e
00000240: 0e10 8abf 3102 9ebe 311c 693f 4e4b 173e
00000250: dd16 a63f cc10 963f 948c 1b3f 2362 de3e
00000260: fda1 dcbe 250b 343f fba7 a7be 7071 0d3f
00000270: 3ec5 313f 9894 6bbe d6a8 e63e e335 43bf
00000280: edfe f8be 3d5a 98bb 75d7 7f3e a8a2 583e
00000290: 3e02 853f b752 133e a3e1 ca3e 25a0 9bbf
000002a0: 2908 6f3e 6442 50bf 50a2 46bf 7577 a6bf
000002b0: 23d5 bf3e 16be c4bf 3098 8b3e feec 98bf
000002c0: 48bb 5e3e c0fc aabe b14d 2f3f a457 f33e
000002d0: 9fe2 40bf e16d ae3e 00eb 2a3e 7d60 54bd
000002e0: dd36 6d3f 0c37 493f eb6a 3dbf 7e57 c4bf
000002f0: b775 82be cef9 493f 8042 05c0 74b4 2f3f
00000300: ff63 b73e 3ab3 95bf ebf0 31be 25a6 50bf
00000310: 1b30 763f f431 a0be 0375 d2bf e9c8 e4bd
00000320: 2c25 a2be d36c a6bf bd4d b2bd 4b9f 873f
00000330: 8a26 323e f109 7dbd 8a1f 27bf 2ba4 cc3d
00000340: bdde 1d40 4470 ba3f 3e6e a33e 0c1c 083f
00000350: 596c a9be 2b19 433f d4f1 babe 733e aabe
00000360: 7c94 943f d526 a33f ecef 433f babd 383f
00000370: 698a 6c3f 27a3 99be ec48 e43a 2097 9fbe
00000380: 57cf 9bbf 41fb 073f ccee a5be fd4f f2be
00000390: ee5c 43bf 1bdf b53f 2062 b83e 0473 743f
000003a0: a487 603f b81e 9d3f 6beb e13f 08d4 b53f
000003b0: e5a1 a93e 5e93 253e 0037 a33e a239 92bf
000003c0: f10c 87bf e6bf e43b c16c 9bbf 7451 b43e
000003d0: 111b b1bf 3230 b33e 343d b3bd 63e4 45bf
000003e0: 881a e7bf 1a75 9abd d050 2dbf 84d8 c03f
000003f0: 5df6 1f3f cadf 4b3e 6a18 c7bf bb7d 823f
0.35902637 -2.675439 0.047153868 1.3679298 -2.0952768 0.7096916 0.4766676 0.34223583
0.04160667 -0.408079 0.15349641 0.032861467 -0.0866526 -0.8302017 0.39042458 1.7567775
-0.31074616 -1.3851835 -0.08420632 -1.6227262 0.6721137 0.58160204 0.27842373 0.4859516
-0.054841552 -0.9253642 -0.0037569944 -1.752586 0.43682563 0.06113673 0.9765491 0.20922482
-2.7362113 1.0131278 -0.20425779 0.4461454 0.22648038 0.34268886 0.88081884 0.69334805
-0.34707046 0.55491716 -2.1860666 1.337403 -0.6866847 0.71923274 0.44605225 -0.78522855
-1.0442961 -0.674662 0.35858858 1.8313148 0.45687905 -0.2875662 -0.9146777 0.28207266
0.1009407 0.49328598 0.26621047 0.40209615 0.02713497 -1.8381373 0.33014885 0.5321752
0.95927924 -1.268035 0.85573167 -0.2198696 0.8653493 -1.7343928 0.33898506 -1.4993328
-0.38703918 0.74838257 -0.46329594 0.20343122 0.21261875 -0.21613523 1.5776182 1.992321
-0.0016913539 -0.15673551 2.0024545 -0.1903816 -0.40807515 0.59180003 -2.1728003 0.014735549
-0.51879215 -1.7010819 0.804994 -0.14287362 1.9274737 -0.6665416 -0.7820317 0.64985734
-0.03285063 1.0343599 0.88172257 -1.2624869 -1.2607841 -0.6424222 -0.95054436 -1.0012106
0.4574442 -1.0159031 0.19250193 2.075382 -0.015469577 1.6303209 -0.19434652 -0.109713726
0.537304 -0.6247663 0.8542938 1.8758497 -0.3387821 -1.6550083 1.7729784 0.37776753
-0.9296621 1.6651031 -1.5291126 -1.1153737 -0.33674905 1.0401752 -1.0475074 -1.7798799
1.2911975 0.6197768 0.3590609 1.2895815 -0.1879423 0.13881154 0.99083614 0.1394552
-0.61375266 -0.35895738 1.069599 0.06341787 0.01469001 -0.18811707 -1.5484656 0.27549022
-1.078615 -0.30861047 0.9105864 0.1477482 1.2975727 1.1723876 0.6076138 0.43434247
-0.43092337 0.70329505 -0.32745346 0.55251217 0.6944159 -0.23005903 0.45050687 -0.762541
-0.48631993 -0.004649429 0.24984534 0.21155798 1.0391309 0.14387022 0.39625272 -1.2158247
0.23342957 -0.81351304 -0.7759142 -1.3005205 0.37467298 -1.537051 0.27264547 -1.1947324
0.2175113 -0.33395958 0.6847792 0.47527802 -0.75345796 0.34068206 0.16691208 -0.05184983
0.9266184 0.7859962 -0.7399127 -1.53392 -0.25480434 0.78896797 -2.0821838 0.68634725
0.35818478 -1.1695321 -0.17377059 -0.81503516 0.96167153 -0.3128811 -1.6441959 -0.11171133
-0.31668985 -1.300196 -0.08706234 1.0595487 0.17397514 -0.06177706 -0.652825 0.0999225
2.4667199 1.4565511 0.31920046 0.53167796 -0.33090475 0.7621028 -0.36512625 -0.3325077
1.1607814 1.2746226 0.76537967 0.721645 0.923987 -0.30007288 0.0017416752 -0.31169987
-1.217265 0.5311776 -0.3240875 -0.4732665 -0.76313674 1.4208711 0.36012363 0.95488
0.8770697 1.2275 1.7649969 1.4205332 0.33131328 0.16169497 0.318779 -1.1423838
-1.0550824 0.006980884 -1.2142564 0.35218394 -1.3836385 0.34997708 -0.08751908 -0.77301615
-1.8054972 -0.075418666 -0.67701435 1.5066075 0.62485296 0.19909588 -1.5554326 1.019462

embedders.embedders.embedder@tgt:t4/c4__cat.weight f4 [8, 8]
00000000: 8f1f 223f c957 a13f 9b3d 5dbe 7aac 973f
00000010: 9646 853e 69e9 193f abd4 bcbe 9794 69bf
00000020: c7ba 723e 6160 6ebf 4fc0 e83e 91e4 803f
00000030: 74ab 0c3e 803e 0abf cfdd b9bf 91fd 07be
00000040: 5d61 cd3f 3f3c 9fbd 1e9d 0640 f214 86bd
00000050: f9bf 2b3f 276a 92bf be23 d7bf 11ef edbe
00000060: 5953 8f3f a476 8cbf 7208 b43e b32a 14c0
00000070: fadc febf 6036 87bf 877d 443f a5e7 e13c
00000080: c395 1ac0 e130 10bf bd20 293f 7fed 40be
00000090: e968 30bf 1874 afbf a1a1 63bf 18ea fabe
000000a0: 0b46 15c0 acac a7bf 7f9d a5bd e4ba 993e
000000b0: a9a9 3d3e 3428 5d3f bee6 4a3f ef0a 4bbe
000000c0: db11 77bf 148a fe3f 029e 90bf 50fe 783e
000000d0: 9015 b33f 4d16 c33f afcc 9a3e 5a72 b63d
000000e0: 5985 0a3e 8b2a 89bf e351 e43e 685d a93e
000000f0: 37db a2bf 356f 9f3f ef5a fa3d 66c9 c0bf
0.63329405 1.2604915 -0.21605532 1.1849511 0.26030415 0.6012178 -0.36881003 -0.91242355
0.23704062 -0.9311581 0.4545922 1.0069753 0.13737279 -0.5400162 -1.4520816 -0.13280322
1.6045338 -0.07775163 2.1033397 -0.06546964 0.670898 -1.1438645 -1.6807783 -0.46471456
1.1197311 -1.0973706 0.35162693 -2.3151062 -1.9911187 -1.0563469 0.7675404 0.027576277
-2.4153907 -0.56324583 0.6606558 -0.18840598 -0.6891008 -1.3707304 -0.889185 -0.49006724
-2.3324 -1.309957 -0.080866806 0.300254 0.18521751 0.8638947 0.79258335 -0.1982839
-0.9651162 1.9885888 -1.129822 0.24315763 1.3990955 1.5241181 0.30234286 0.089085296
0.1352743 -1.0716108 0.44593725 0.33079076 -1.2723149 1.2455813 0.122243755 -1.5061462

embedders.embedders.embedder@tgt:t5/c5__cat.weight f4 [9, 9]
00000000: 2c83 35be c75f 9b3f 4792 8b3f 23c9 c93f
00000010: 1b23 953f 4c35 1c3f bf60 d13f db15 a33f
00000020: cf3b 863f 26a1 98be d830 ea3e 3681 74bf
00000030: 9fe5 073f 5361 20bf 6193 39bf 190d 533f
00000040: d2ab 133f d1b8 d1bf 1cb5 c83e 90f2 013f
00000050: 7a7b c7bf 2487 bf3f aefb 523f 1641 923f
00000060: c7b1 58bf 07b4 83bf 2156 433f 13e6 ee3f
00000070: c1fc 413f 495b 4b3d 88c7 633f e77f d63e
00000080: ce28 e53d e8b9 e53f 69da 47bf c35c 2a3f
00000090: 3ad9 a03f 2a46 273d 553a 1ebe b3bb 883f
000000a0: 1b2e acbd 65c8 5b3e 329d 6ebf be93 1bbf
000000b0: af83 2bbb f2ac 873d 02b7 c33f 92ad 873f
000000c0: 9298 293f cd24 95be 5f78 a4bf 2ffb 3e40
000000d0: b5c2 42bf 4f19 3a3f 1cf2 7dbf 7de4 6cbf
000000e0: 6c49 963f d017 cd3f 31aa eebe d62c 94be
000000f0: 4139 f13f c3b0 b4bd 3dcc d93f 94db a13f
00000100: 187b 6c3e ab90 40bf e09c 8b3f bc73 3abf
00000110: 748a 3f40 b4f0 b0be 154e 373f 4060 38ba
00000120: 3be5 8b3f 7789 0140 910e 8cbe 151c 963e
00000130: 53f2 923f 5262 0a3e c09f f33e 7561 2ac0
00000140: 08c2 073f
-0.1772582 1.2138604 1.0904015 1.5764507 1.1651338 0.61018825 1.635765 1.2741045
1.0487002 -0.29810447 0.4574039 -0.9550966 0.5308475 -0.62648505 -0.7249051 0.8244186
0.5768405 -1.6384526 0.39200675 0.50760746 -1.5584557 1.4963117 0.8241528 1.1426113
-0.84646267 -1.0289315 0.763033 1.8663963 0.75776297 0.049647603 0.88976336 0.41894457
0.111894235 1.7947359 -0.7806764 0.66547793 1.2566292 0.040838398 -0.1545194 1.0682281
-0.084072314 0.21463163 -0.9320861 -0.6077231 -0.0026171019 0.066247836 1.5290225 1.0599844
0.6624843 -0.2912964 -1.2849234 2.984081 -0.7607835 0.7269487 -0.99197555 -0.92536145
1.1741157 1.6022892 -0.4661422 -0.28940457 1.8845598 -0.08822777 1.7015454 1.2645135
0.23093832 -0.75220746 1.090725 -0.72832847 2.9928255 -0.34558642 0.7160352 -0.00070333853
1.092933 2.0240152 -0.27354863 0.293183 1.1480201 0.13514069 0.47582817 -2.6621983
0.53030443

embedders.embedders.embedder@tgt:t6/c6__cat.weight f4 [73, 10]
00000000: 1e01 723f ea14 7ebf ae78 0f3f afeb bdbf
00000010: bd3f 67bc 0ed8 533f 1061 a0be 088b be3f
00000020: 814c 533d 5095 d73e 2b5e abbe a032 173e
00000030: 16c7 933e 3cb1 a4be 7751 b53f 71ff b73f
00000040: c580 e73f aaab af3e 753f 953f db74 61bf
00000050: 4785 793d a692 2fbf 6946 623e 664e 7ebe
00000060: 05fa 29bf 6db5 353f 8786 0cbe 555c 78bf
00000070: 6c19 e03d 2a2c bbbf 7c35 883e 2d08 bbbd
00000080: a959 9b3f 6f0f 173f 6dea 1fc0 c1fb 203f
00000090: e416 bdbf f9ac aebe 9be4 91be 1835 793e
000000a0: 7242 23bf f0c1 8e3f 15bd 13bf 6c9f 0ac0
000000b0: 28b6 7fbf fbdc ecbe cbb8 86bd 9ec9 e93c
000000c0: 8378 283f f024 30bf c8fb c4be be34 473f
000000d0: c982 1ebf b61a 09be ed6f eabf 27ed 4940
000000e0: 192d 903e 0fda cebf 1c6a 2c3f 6149 05bf
000000f0: 6a63 11bf 102d 923d 62a8 13bf 65de 3abf
00000100: ec59 bebe d33f 90bf c3c4 22bf a695 9fbe
00000110: 7d27 6abf 6e0d 2abf a28d 903f 20d6 79bf
00000120: 9d39 05bf 1163 af3f 4b85 9cbf 9826 40bf
00000130: 0f8f a7bf ed7f 0b3f afec 4c3f 3815 74bc
00000140: 1f3e 94bf 48fc b7bf d46b fcbe 405c dd3e
00000150: a4ba 93bd 23c5 a0bd 40ac c4bf d603 213f
00000160: 7514 5ebe 8cab 123f c8f0 d3be 8f62 a1be
00000170: 82f7 f13f 31f7 9bbe 979a 9fbe dfda eebe
00000180: bcec 763c 77e5 4b3f 5508 173d 0a2a 6abf
00000190: e4b8 20bf 4e7e 1140 3205 c9be 454f 33be
000001a0: c80f f23d 45e8 703f dfa5 163f fbf2 99bf
000001b0: 22d7 35be 6344 f43d e725 b33f 76f9 583f
000001c0: fc3d 4a3f 22b2 1240 d09e c2bf 94c8 4fbf
000001d0: 84ad 4cbf 3086 39bf f2c4 b63f ddff b23e
000001e0: 9bea 4e3f b743 e43f 0372 afbf cb48 b73d
000001f0: 9752 b4bc edb2 e53f 40df 183e 7be6 523e
00000200: cc17 6ebf ecec fcbf e955 a4bd 5452 a8bf
00000210: f5fd dabf 7166 5cbd 97ba c0bf ee82 03c0
00000220: 9be8 063f d8a1 a6be b5b1 88bf 8374 ff3e
00000230: 713d 9bbf 1d0f c83c ae6f cc3f 1fa9 9e3f
00000240: 47df 0cbf f4ce 33be 48b5 07c0 d830 3bbe
00000250: 5dd7 123f d09f db3d 5628 89bf 89d7 eabf
00000260: a4aa de3f af16 913f b1a7 8b3f 4446 aa3c
00000270: 740c dcbf 92e9 bd3e 5131 8b3f ef1f f13c
00000280: 463a cfbd 4e2d 52bf 14d8 bebf f743 de3d
00000290: 818e 143f 4745 03c0 a243 15bf e2b4 a0bf
000002a0: 78b5 933f 81da 433f c401 fcbe 840c a53f
000002b0: c2a5 7f3f 0450 903f 6ef2 0c3e e478 b83d
000002c0: 6c99 1fbf 00f5 603f 06e6 09bf 7b88 80be
000002d0: d13e adbe af6f dd3e ecdb 57bf ef88 403f
000002e0: bb98 c93f 9ac9 edbe 8b71 5f3e 4d04 3abf
000002f0: e64e dc3d d37d c9bf 049f 2b3f e554 e5be
00000300: 5102 8cbf 25c8 a9be 93a0 5b3d 00b5 5bbf
00000310: b6f1 c73d 9284 4d3e 745d 0b3f b12a 14be
00000320: 47cf 60be 6b55 3d3e f5ab 2c3f 99ef f3bd
00000330: 3d6e 823f ef26 b9bd 9a36 5f3f 6c21 363f
00000340: 6ed0 17be bf81 813e 2f6d 1d3e a120 1840
00000350: d844 033d 34c2 0e3f c822 b93f faa7 10bf
00000360: 1708 4b3f aaf3 3e3f 2e41 8f3e 75d5 813e
00000370: cdba 183e 33be 433d 2be7 9cbd 8e81 073e
00000380: a8eb 92bf 7887 673f ee71 f03f fa2c 9fbe
00000390: 1ada b3be f27d b13f 190d aa3f f264 6f3f
000003a0: 640b 51be 7994 aabf 55c1 95bf f3ec 27bf
000003b0: 1a14 273f c465 07bf ac59 103e a881 203f
000003c0: 875e 1ebf b6e5 373f 306c 32be 5981 243e
000003d0: d71a 64bf f451 51be 1765 92bf 97fc 4fbe
000003e0: 635c 99bf b8e1 96bc a198 f6be 4222 183f
000003f0: e870 943f 3ba4 43bf 529d 15c0 b24b a43f
0.94532955 -0.9925066 0.5604352 -1.483755 -0.0141143175 0.8275155 -0.31324053 1.4886179
0.05158663 0.42106104 -0.33470282 0.14765406 0.28862828 -0.3216647 1.4165486 1.437483
1.8086172 0.34310657 1.165999 -0.8806893 0.06091812 -0.6858314 0.22097172 -0.24834594
-0.66397125 0.7097996 -0.13723193 -0.9701589 0.10942349 -1.4622853 0.26603305 -0.09132419
1.2136737 0.59007925 -2.4986832 0.62884146 -1.4772611 -0.34116343 -0.28494725 0.2433666
-0.6377326 1.1152935 -0.5771039 -2.1659803 -0.99887323 -0.46262345 -0.06578215 0.028538521
0.65808886 -0.6880636 -0.38473344 0.77814853 -0.6191831 -0.13389096 -1.8315407 3.1550996
0.28159407 -1.6160296 0.6734941 -0.5206509 -0.5679232 0.07137501 -0.57678807 -0.729956
-0.3717798 -1.1269478 -0.63581485 -0.3116886 -0.91466504 -0.6642674 1.1293223 -0.97592354
-0.52041036 1.3702108 -1.2228178 -0.7505889 -1.3090533 0.54492074 0.8004865 -0.014897637
-1.1581458 -1.4373865 -0.49301016 0.43234444 -0.07213333 -0.07850101 -1.5365067 0.6289648
-0.21687491 0.5729301 -0.4139464 -0.31520507 1.8903658 -0.3046203 -0.3117263 -0.4665136
0.01507109 0.7964701 0.03687318 -0.91470397 -0.6278212 2.273334 -0.39261776 -0.17510708
0.11819416 0.94104415 0.5884685 -1.2027277 -0.17757848 0.11927106 1.3995942 0.8475565
0.7900083 2.2921224 -1.5204716 -0.8116543 -0.79952264 -0.7247038 1.4278853 0.34960833
0.8082673 1.7833165 -1.3706669 0.08949431 -0.022012038 1.7945229 0.14928913 0.20595734
-0.9300506 -1.9759803 -0.080241986 -1.3150125 -1.7108752 -0.053808633 -1.5056943 -2.0548663
0.5269868 -0.32545352 -1.0679232 0.4989358 -1.2128125 0.02442127 1.5971582 1.2395362
-0.55028194 -0.17559415 -2.1204395 -0.18280351 0.5735987 0.10723841 -1.0715435 -1.8347026
1.7395825 1.1335047 1.091055 0.020785458 -1.71913 0.37092263 1.0874425 0.029434172
-0.10118537 -0.8210038 -1.4909692 0.10852807 0.58029944 -2.0511034 -0.58306324 -1.2555201
1.1539755 0.76505286 -0.49220097 1.2894444 0.998623 1.1274419 0.13764355 0.09007433
-0.6234348 0.8787384 -0.5386661 -0.25104126 -0.33836988 0.4324927 -0.8431995 0.75208944
1.5749735 -0.46442872 0.21820657 -0.7266281 0.10757236 -1.5741524 0.67039514 -0.44791332
-1.0938207 -0.3316051 0.053619932 -0.8582306 0.097628996 0.20070103 0.54439473 -0.1446941
-0.2195407 0.18489616 0.67449886 -0.11910934 1.0189892 -0.09040629 0.8719269 0.7114475
-0.14825603 0.252943 0.15373681 2.3769915 0.032048076 0.5576508 1.4463739 -0.5650631
0.7930922 0.7459055 0.27979416 0.25358167 0.14915009 0.04778881 -0.07661279 0.13233015
-1.1478167 0.90441084 1.8784769 -0.31089002 -0.35127336 1.386656 1.3285247 0.93513405
-0.20414501 -1.332656 -1.1699625 -0.6559593 0.6526505 -0.5288966 0.14096707 0.6269784
-0.6186299 0.71834886 -0.17424083 0.16064967 -0.89103454 -0.20441419 -1.14371 -0.20311199
-1.1981319 -0.018418178 -0.48163322 0.59427273 1.1596956 -0.7642247 -2.337727 1.28356

embedders.embedders.embedder@tgt:t7/c7__cat.weight f4 [4, 4]
00000000: 1ef2 cdbe 3c36 b13f 03db 263e b8d6 d2bf
00000010: 7cb4 0e40 05ab 87bf 0ef8 d63f a8a8 64be
00000020: 8adc ff3f 4d90 093f b848 923e cd65 0d40
00000030: cf44 b9bf 65a6 fcbd 0568 4b3f dc8a 513f
-0.40223783 1.3844676 0.16294484 -1.6471777 2.229766 -1.0599066 1.679445 -0.22329962
1.9989178 0.5373581 0.28571105 2.2093384 -1.4474124 -0.12336425 0.79455596 0.8185251

regressors.regressors.regressor@tgt:t0/c0__cat.0.weight f4 [16, 51]
00000000: 3eab d9bc d556 69bb 4515 a43d 41a3 143b
00000010: 3edd 0f3d 8360 b8bd 4b64 49be 633e 26be
00000020: 3a40 593e 1b50 05bd 3fc1 803d ef2c bdbd
00000030: f07b a13d ae3d 7dbd 3521 0b3e 37e9 e93c
00000040: 61fd 443c 4173 17bd c2f9 f63d c0ca 32be
00000050: 8513 3e3d 41c0 55be 5eef 3c3e 53ae 14bd
00000060: 0f60 343d 5e05 44be a95f 25be f61a acbd
00000070: a3b3 03be 0724 333d d35e 303d f379 b93d
00000080: e8a2 94bd fe0f 2dbd 4783 123d d400 603d
00000090: 912b d6bd 2e5a 2f3e 66f7 21be 81c6 f13c
000000a0: 4e88 ac3c a2a3 a53c 22e6 56be aa91 503d
000000b0: 83e9 a4bd cabc 903d 501f 9cbd a950 2e3c
000000c0: c445 193c 643a 483c db7d ffbc 6d2e 6b3d
000000d0: 7432 a8bc 1c3e f1bc 6439 b33d 5dd3 483e
000000e0: 544a 66bd 0b50 a23d 1344 21bd 28b2 e23d
000000f0: 5d68 3dbe 8c73 ae3c cf12 05bc f98a e23d
00000100: ccbf cfbd 3894 a7bd 93da a7bd d7da f53c
00000110: 0734 d23d 9372 fc3d ffd1 a53d 23b9 d3bc
00000120: c018 b6bd b077 613c 227a d83d 6b03 c9bd
00000130: 3ffe cabd e991 a7bd fc72 dbbd c066 123b
00000140: 0387 823d 6263 013d 2732 92bb dd9d 5fbd
00000150: fc2f 7bbd c6ba c6bd da16 013e be36 483d
00000160: 2fb3 f2bd d252 43bd 8815 d03d 1084 8a3d
00000170: c569 fdbd 4b4e 78bd 2a82 e2bd df75 133e
00000180: 63e9 133e 6d94 f73b c848 973c e6f4 f53d
00000190: 98ad bd3d 6fbe 273c 0d68 8b3d 3570 02be
000001a0: 6232 be3d ea49 2cbd 8112 453e 3fd3 233e
000001b0: e7c6 f83d bbd2 f43d 2b1d 323e e43d 19be
000001c0: 2848 4f3c f76a 94bd 52a4 d13d 60e3 1fbe
000001d0: d355 12be 205f dc3d ad66 583d ceb9 c93c
000001e0: 5848 363d dad1 27bd a604 2b3d 5438 e4bd
000001f0: d3e5 64bd 17e9 1b3e 294b 29bd a37e 103d
00000200: bfb0 1ebd 15d6 3abe 9074 0ebd 74ea 163e
00000210: e524 26bd 953c 1d3e 119e f0bd 89e5 46bd
00000220: ebe8 68bc a8af 143d 6ff8 09be 65dc c83d
00000230: afe6 f1bc 02f1 cf3d 2625 ffbd 5354 9ebc
00000240: 94ad 873d 2d52 b9bd eada ce3d c538 513d
00000250: 4caa ce3c 26c9 f93d d111 dc3d be4c d23b
00000260: 25e6 26bb c1fc 58bd 1f0f 0b3e e56f 5b3d
00000270: c5fa dc3d 12dc bd3d c039 243e f24e 393d
00000280: 6d79 93bd de54 fe3d d1f5 f9bd 0156 733d
00000290: 475d c0bc 7ae1 fc3d e0c7 7fbd eb64 c0bd
000002a0: cf8b e5bd 8f04 e8bd f66c 013e d7d8 b6bd
000002b0: 4d54 8f3d 1337 41bd ab09 3b3d febc 323d
000002c0: b284 fdbc 1d1c 97bd 0ea5 9dbd 0fec b6bd
000002d0: 3192 87bd 2777 643d 2384 10bb 8a3f 91bd
000002e0: 0ea2 243e 7ff3 86bd fb7c 35be 85e4 193d
000002f0: ba5c 73bd 899e 24be 428b c7bd e559 76bd
00000300: 6a04 1cbd a43c 3abc 37e1 d2bd 9fc6 38ba
00000310: 50cb 75bd 034f b73d 08f0 413d 6be4 6d3d
00000320: 7825 443d 20ac b63d ccfc da3c 7aa6 033e
00000330: b6c6 ecbd d304 f3bc a710 c33d 3863 c73d
00000340: c97d 5a3e c3d0 003e 3db4 febc 375d d7bd
00000350: 0e17 8bbd d8b4 01be c57e c9bc a598 adbd
00000360: b4c2 03be 2f1a f2bc e834 d7bb 8390 153d
00000370: 7fd3 453d 3ef6 2bbd 735b 12be 9a5b e8bd
00000380: 4428 3a3e 4400 48be 0ae6 353e 12b9 9cbd
00000390: d4fa 413d 9348 89bc 14b2 30be f69b 96bd
000003a0: c3c3 0a3d 9693 403e 41b0 1c3d 923a 2b3e
000003b0: 2ac3 cbbd ba46 02be 6170 483e 58b3 9f3d
000003c0: f13d 40bc ddc4 cc3d b2c3 64bd edd3 aebb
000003d0: 917e d53d 7096 12be c485 b83d ce01 dfbb
000003e0: 81ad 90bc bdf4 a6bc 2f59 92bd 9eb8 5f3d
000003f0: 001e 58bd daf0 453c d70e f03d 0b4a aabd
-0.026570912 -0.0035604734 0.08011869 0.0022680315 0.035123102 -0.09002783 -0.19667165 -0.16234736
0.21215907 -0.032547098 0.06286859 -0.09237086 0.07884967 -0.0618264 0.13586886 0.028553588
0.012023301 -0.03697515 0.12059356 -0.17460155 0.046405334 -0.2087412 0.18450686 -0.03629906
0.04403692 -0.19142672 -0.16149773 -0.0840358 -0.12861495 0.04373553 0.04305918 0.09056463
-0.072576344 -0.04225158 0.035769727 0.05468829 -0.104575284 0.17124245 -0.15817031 0.0295136
0.021061089 0.020219628 -0.20986226 0.050920166 -0.08052351 0.07067259 -0.0762316 0.010639348
0.009355012 0.012220953 -0.031187942 0.057417322 -0.02053187 -0.029448561 0.08751181 0.19611879
-0.05622323 0.07925423 -0.03937156 0.11069137 -0.18496843 0.021295331 -0.00812216 0.11061663
-0.10144004 -0.08182567 -0.081959866 0.030011578 0.1026383 0.12326541 0.08096694 -0.025845116
-0.088914394 0.013761446 0.1057017 -0.09815105 -0.09911775 -0.08182127 -0.10715291 0.0022339076
0.06373408 0.03158892 -0.004461545 -0.05459391 -0.06132506 -0.09703593 0.12606373 0.04888033
-0.11850583 -0.047686405 0.10160357 0.0676347 -0.123736896 -0.06062154 -0.11059983 0.14400433
0.14444499 0.0075555355 0.018467322 0.12009601 0.09261626 0.010238274 0.068069555 -0.12738116
0.092869535 -0.042062677 0.1924534 0.15998553 0.121473126 0.11954256 0.17393939 -0.14965016
0.012651481 -0.072469644 0.1023642 -0.1561408 -0.14290552 0.10760331 0.052832294 0.024624731
0.044502586 -0.040971614 0.04175248 -0.11143556 -0.05588324 0.15225635 -0.041331444 0.03527702
-0.038742777 -0.18245728 -0.03477913 0.14737874 -0.04056253 0.15355141 -0.11748899 -0.048558746
-0.014215688 0.03630033 -0.13473676 0.09807662 -0.029528944 0.101533905 -0.124582574 -0.019327318
0.06624904 -0.09048877 0.10100348 0.05107953 0.025227688 0.12196569 0.10745586 0.00641784
-0.0025466767 -0.05297542 0.13579987 0.053573508 0.10790018 0.09270491 0.16037655 0.045241304
-0.072008945 0.12418531 -0.12205089 0.05940819 -0.023481978 0.12347694 -0.062446475 -0.093942486
-0.11208307 -0.113289945 0.12639222 -0.08928078 0.06998501 -0.047171663 0.045663517 0.04363727
-0.030947063 -0.07378409 -0.07697497 -0.08931743 -0.06619681 0.055777695 -0.0022051416 -0.07092197
0.16077444 -0.06589412 -0.17723458 0.03757145 -0.059414603 -0.16076101 -0.09743358 -0.060144324
-0.038090147 -0.011366997 -0.102968626 -0.000704864 -0.060008347 0.08950617 0.047348052 0.058079164
0.047887295 0.08919549 0.026731871 0.12856475 -0.115613386 -0.029665386 0.095246606 0.09735721
0.21337046 0.12579636 -0.031091804 -0.10515826 -0.06791507 -0.12666643 -0.024596581 -0.0847638
-0.12867242 -0.029553501 -0.006567586 0.03651477 0.0482974 -0.04198288 -0.14292698 -0.113455966
0.18179423 -0.19531351 0.17763534 -0.07652487 0.04735835 -0.016758239 -0.17255431 -0.07353966
0.0338781 0.188063 0.038254026 0.16721562 -0.09949334 -0.12722293 0.19574119 0.07797879
-0.011733518 0.09998486 -0.055850692 -0.005335322 0.10424531 -0.143152 0.09009889 -0.006805635
-0.017660858 -0.020380372 -0.07145917 0.054619424 -0.052762985 0.012081349 0.117215805 -0.08314904

regressors.regressors.regressor@tgt:t0/c0__cat.0.bias f4 [16]
00000000: a2ed 0c3e 0bf5 6f3e 922b 9b3e bcd2 b83d
00000010: c4b8 913e 4c26 863e b6d7 9cbd 3bf6 2c3e
00000020: 35b2 6a3e 5b3f 5c3e a5f9 693e 8e44 183e
00000030: f662 02bc bd32 923e c0ff 06be 2e74 2e3e
0.13762525 0.2343332 0.3030668 0.090245694 0.28461277 0.26201093 -0.07658331 0.16890804
0.22919543 0.21508543 0.22849138 0.14869902 -0.007958164 0.28554335 -0.13183498 0.17036507

regressors.regressors.regressor@tgt:t1/c1__cat.0.weight f4 [16, 51]
00000000: 59b0 fc39 54a9 a83d 81e1 263d 098e cd3d
00000010: 8f8d f3bd d450 863c 0140 e13c 8e3c ce3b
00000020: 3964 9abd e28c dbbd 6c05 bf3d 8a3e b53d
00000030: 199d 513b bcbe bbbd 0382 ec3d 36c1 7dbd
00000040: 92e5 53bd 4bba cf3d 8890 143e eda0 9b3d
00000050: 072d 183d 546d dc3d 483c e83d b20a c5bc
00000060: 87d6 f6bc bc33 a83c 4239 09bd 7fc1 5bbc
00000070: 5e8a ac3c 46c5 cebd 8ce6 b1bd 615e cebd
00000080: ed23 54bd 485a c63d 5710 05ba fdbe a13d
00000090: b1c4 02be 85ff 14bd db3f b03d c456 c23d
000000a0: a943 8abb 54f8 52bd 5506 8d3d 952d f03d
000000b0: 7308 7fbd ee6d 07be 8a67 eebd 4a1d b8bc
000000c0: 2edb 61bd bcac 353d bb61 a23d bab1 723d
000000d0: 22cb 363d bda8 0f3d f71d 62bd f6da 6bbc
000000e0: 2fb7 e73d fb37 98bd 0306 1abc 975f 74bd
000000f0: 1f4c 18bd ccf9 3fbd f213 a93d 5394 8d3d
00000100: 5c86 0dbc 7401 863d cf13 333d ad3a bb3d
00000110: 4325 c73d 602b 1f3d 48c2 f33c bd8a a5bd
00000120: c628 9ebd e9be b43d ec3c 0d3c 08b2 d3bd
00000130: 9088 193e 1149 aa3d ebe7 91bd ca20 2e3d
00000140: 74a9 c8bc f733 1ebd dae3 5a3d 1178 75bd
00000150: 25a0 78bd 7a10 f3bd 589d 853d b455 e03d
00000160: 4357 08be 854d 89bd 2527 b4bd cd23 d43d
00000170: 36b5 a1bd c721 92bb 5e02 253e b4b3 c23c
00000180: 5571 2cbd 6ee2 183d 36b8 4fbd e456 ef3d
00000190: 7740 5d3d ad15 193d 1e41 743d 4b0c 6ebe
000001a0: 9990 3bbe 38f3 6bbc 0afa 72bd e123 d73c
000001b0: 71c0 f33d d31f 69bb dc23 c4bc cdb2 abbd
000001c0: 0b50 8e3d 2956 5dbd 5e96 183c f473 43be
000001d0: 397d 253e 634e 743c 8133 bdbc 9f3a 98bd
000001e0: 596a 9b3d 75ca 8ebd 22d8 9c3d 31d6 55be
000001f0: f8e7 203e ef5f 0a3e ab6b 8cbd 3ed0 0bbd
00000200: 0c9f 5b3d 2e6c b5bc 5a9a ed3d f886 b33d
00000210: 1e66 623c 057d e63d 805c acbd 3d53 5a3d
00000220: e4ef 8b3d fe8b 4fbd f719 d4bd 3935 18bd
00000230: 8669 0cbe 01a3 50bd 9ca7 543e 2a53 8bbc
00000240: 5498 43be 1c4b 81be bf70 6abc 37de 173e
00000250: 0674 113e 831e 02bd d79b db3d d856 e43c
00000260: 03e6 c43d d824 0b3d 26b3 6ebe d2f6 79bd
00000270: 4368 b2bd 8444 f9bd 62ba 97bd 9b08 e13d
00000280: 524d 5bbe 75f6 8f3e 1368 8cbd 030f f53d
00000290: 4c39 873d b40d 173d 77b2 eabb 967b c53d
000002a0: ebfc e33d 6431 6f3c 069a 2ebe 0212 483d
000002b0: c7f5 643d 68f8 3abc 9d40 473b 6a37 063e
000002c0: 93f6 903c 3056 1ebd c174 c7bd 0b8a 83bd
000002d0: 8ed3 5bbd 3a7f 10be fd3e 373e 7d15 0cbe
000002e0: ce6e 233d 1c9a 663d 0795 60bd b6a7 d33c
000002f0: 86c6 9d3d 2223 e3bd 6bcb ebbc 05c3 59be
00000300: 6cc1 b73d e800 233e 101b bcbd 6155 10be
00000310: c3eb e1bd 8440 323e f39a 253e c009 a03c
00000320: 1807 053d 5451 ef3c 0323 373e 26b7 0d3e
00000330: cf08 5a3d 938e ddbd db71 b1bd dfd9 dabc
00000340: ea94 75bd b096 85bd 475b dd3c ae2a d1bd
00000350: 8040 35bd 79bc 333c 8a19 263e 9819 dfbd
00000360: e314 96bd 2a33 623d 78bc cc3d 59cb 06bd
00000370: 9dd4 51bc ed3d ca3d f1e3 96bd fcfd f43d
00000380: f09c 723d 54be 9f3c 68c2 c93d fdd5 0f3e
00000390: 0f7b 43bc a6ab 18be 31b7 48be 56c6 d2bc
000003a0: 0472 53be 7383 103e 6510 0fbc 25b3 b73d
000003b0: 96aa f6bd 1b43 a2bd 20ad 373d 3874 4a3e
000003c0: a42f 20be 10a3 1ebc 8ad6 1fbb 4252 d93d
000003d0: f3a4 d73a 774e f1bd 3aec dcbc ab9b 3b3e
000003e0: a7ff e2bd 2b20 9639 3c62 36be c91b 603c
000003f0: 46aa f0bd 0ba9 993c 4987 c4bc f1c2 a03d
0.00048196575 0.08235422 0.0407424 0.10036857 -0.118922345 0.016395964 0.02749634 0.00629384
-0.07538647 -0.10720231 0.09327206 0.08849819 0.0031984507 -0.09167239 0.11548235 -0.06195184
-0.051732607 0.101429544 0.1450826 0.075990535 0.037152316 0.1076304 0.11339623 -0.024052951
-0.030131591 0.020532481 -0.03350187 -0.013412832 0.021062072 -0.10096221 -0.086865515 -0.10076595
-0.051792074 0.096851885 -0.0005075982 0.07897756 -0.12770344 -0.036376495 0.086059295 0.094892055
-0.0042194915 -0.051506355 0.06885973 0.11727444 -0.062263917 -0.13225529 -0.11640842 -0.022474904
-0.055140667 0.044354185 0.07928797 0.059251525 0.044627316 0.03507303 -0.055204358 -0.014395466
0.113142364 -0.074325524 -0.009400847 -0.059661474 -0.03718197 -0.046869084 0.082557574 0.06913056
-0.008637991 0.06543246 0.043720063 0.09142051 0.09723904 0.038859725 0.029755726 -0.08083103
-0.07722621 0.08825476 0.008620482 -0.10336691 0.149935 0.083147176 -0.07124313 0.04251174
-0.024494864 -0.038623776 0.053439952 -0.059928957 -0.0606996 -0.11868377 0.065241516 0.109538466
-0.13314538 -0.06704239 -0.08796529 0.10358391 -0.07895891 -0.004459593 0.16114184 0.02376733
-0.04210027 0.037325315 -0.050712787 0.11686495 0.054016557 0.037374187 0.059632413 -0.23246877
-0.18316878 -0.01440125 -0.059320487 0.026262226 0.1190194 -0.0035571947 -0.02394288 -0.08383713
0.06948861 -0.054037247 0.009313194 -0.19087201 0.1616105 0.014911267 -0.023095848 -0.07433056
0.075886436 -0.06972209 0.076584116 -0.20882489 0.15713489 0.13513158 -0.068564735 -0.034134142
0.053618476 -0.02214631 0.11601706 0.087659776 0.013818292 0.11254314 -0.084160805 0.05330204
0.06832865 -0.050670616 -0.10356515 -0.037160132 -0.13712129 -0.050936703 0.20767063 -0.01700743
-0.19101077 -0.25252616 -0.014309107 0.14830862 0.14204416 -0.03176738 0.107230835 0.027873442
0.09614184 0.033970684 -0.23310527 -0.0610264 -0.087112926 -0.121712714 -0.074085966 0.109879695
-0.21416214 0.2811772 -0.06855788 0.11965754 0.066027254 0.036878303 -0.007162388 0.09642713
0.11132225 0.014599178 -0.17050943 0.0488453 0.055898454 -0.011411764 0.0030403503 0.13107076
0.0176957 -0.038656414 -0.09739066 -0.06422814 -0.05366855 -0.14111033 0.17895122 -0.13680072
0.039900593 0.056299314 -0.054829624 0.025836807 0.07703881 -0.110906854 -0.02878352 -0.212658
0.08972439 0.15918314 -0.09184849 -0.1409507 -0.11031296 0.17407423 0.1617239 0.0195359
0.03247747 0.029213585 0.1788445 0.13839397 0.053231057 -0.108182095 -0.08664294 -0.026715217
-0.05995647 -0.06522882 0.027021063 -0.10213219 -0.044250965 0.010970228 0.1622068 -0.108935535
-0.073282026 0.055224575 0.09996885 -0.03290877 -0.012807039 0.09875093 -0.07367695 0.11962506
0.0592317 0.019499935 0.09851533 0.14046474 -0.011931195 -0.14909229 -0.19601132 -0.02572934
-0.20648962 0.14112644 -0.008731936 0.08969716 -0.120442554 -0.079229556 0.04484284 0.19770896
-0.15643173 -0.009682432 -0.002438935 0.106113926 0.0016452357 -0.11782544 -0.02696811 0.18321101
-0.11083918 0.00028634196 -0.17810911 0.0136784995 -0.11751227 0.018757364 -0.02399029 0.07849682

regressors.regressors.regressor@tgt:t1/c1__cat.0.bias f4 [16]
00000000: 6031 d6bd 45a3 08be b856 883e 7d85 143e
00000010: 33f2 863e 42b7 25bd 08f3 3c3e 7701 513d
00000020: e2c0 7fbd b0bc eb3c ca7c d8bc bdbb 883d
00000030: b805 b53a b8a7 923c fe7d c9bc eab8 dcbc
-0.10458636 -0.13343532 0.2662866 0.14504047 0.26356658 -0.04045797 0.18452084 0.051026788
-0.062439807 0.028776497 -0.026426692 0.06676433 0.0013810908 0.01790224 -0.02459621 -0.026943643

regressors.regressors.regressor@tgt:t2/c2__cat.0.weight f4 [16, 51]
00000000: be84 f3bd 4ecb 0b3e af54 ab3d 038e 8abc
00000010: ce25 8ebd c809 c6bd ac82 05bc 8f17 8bbd
00000020: ca07 51bc 9ba7 853c 7e3f 233d dfbe 473d
00000030: dd7f c2bd 3abf c33d c7db efbd 5917 aabc
00000040: b49d b63d 0a55 c03d 3451 843d fd9a b63d
00000050: caee 0dbe da5c c4bd 7db1 cabc de03 38bc
00000060: 181f a2bd 4fb8 513d 795a e03d a534 ed3d
00000070: ef04 72bd bc66 92bd 4fd9 29bd bf79 533c
00000080: 8afe 10bd 8a39 bdbd d6cd 883d 8415 ddbd
00000090: b739 353d 763d 2abd fd37 9cbd bb20 ea3d
000000a0: 39d5 8bbb 00f9 e2bd 43b2 c33d c415 c6bd
000000b0: dd90 bc3d 4503 9b3c 1740 db3d 6463 a6bd
000000c0: eedd 7fbd 652f a03d 1215 07be 71e5 e0bd
000000d0: 589b 323d 2ca6 c0bd 1bc5 82bd 0608 263d
000000e0: 103f 7abc 31ba ba3d 0bbf 82bd 92e4 aa3d
000000f0: de65 d8bd 4915 863c dd45 6abc fe25 edbd
00000100: 1a5b a2bd 9f59 22bd 0f91 3b3d d886 ae3b
00000110: 3800 5a3b 6811 a43d 9d46 c13c 6e63 083e
00000120: 110d c03b 6481 0a3c 5119 b6bc fddf 713c
00000130: a79c 963c 3a19 18be e25b e2bd 5519 a33d
00000140: bde3 063e 4e3e 20bd 9005 073e 3ebe f13c
00000150: bc04 f6bc 0631 eebd 322d d2bd df89 dbbc
00000160: d4ff d6bd 5d20 d8bd 9e9b 14bd 2c9d be3b
00000170: 51f7 0fbd 784d e23d f2fa c73d c3a1 8cbd
00000180: 493f 983d a81b 573c cc41 05be 27eb 31ba
00000190: 7c26 d03d 79b0 b4bd d380 15be 93e9 6b3d
000001a0: 3ab0 5b3d 5b94 d5bd ccad 1f3d c189 eb3b
000001b0: 473e 4abd 2845 3fbd d976 d73d 9992 973d
000001c0: 1db7 a8bc b58e 21bd 01aa 5ebd 17b2 01bd
000001d0: 8852 5dbb 1ca6 523d 587f c33c b68d 94bd
000001e0: d2f2 d23d 61f3 cf3d 2382 97bc 8df3 3abd
000001f0: e268 f43c 6410 2a3d f5a4 843d 2efd a9bd
00000200: 3aa9 5bbd 9c8e 3fbd 12b8 753d d4b6 d8bd
00000210: 67d0 e03d 016d 0c3d 9599 83bd 4152 11bd
00000220: 3304 9e3d c820 9d3d 9e1c 2a3d 6931 25bd
00000230: 7d48 2b3d 6335 56bd 6c1b b13d f6a9 e4bd
00000240: 1774 97bd f2c0 7b3c 2203 6d3d 1b6e 843d
00000250: 3471 043e 7593 88bd 3bef 0e3e 5c84 8bbd
00000260: deeb e0bd bd3d 033d 4054 d73d 2247 823d
00000270: 1250 aebd 4834 8fbd e5da a5bd 4d57 903d
00000280: 76d0 0c3e d4be 6b3c f866 d5bc 8e4a ffbb
00000290: 7a1b da3d 9e62 6bbd 52d9 aebd 89ad 103d
000002a0: dd07 b7bc 07b3 873d 88ee 7fbd bf5f ac3d
000002b0: f29c c73c c0da df3c c7d8 f63d 1198 3dbd
000002c0: 3c63 7c3c e860 bcbd 1df1 b73d 2746 fbba
000002d0: e6e3 d93d 9ca7 d83d facf 45bd 8ad1 4c3c
000002e0: 5643 4bbc 52dd 70bd 2e8c 3ebc b886 06be
000002f0: 544b 503d a4f2 0a3d bbc8 a6bd 6231 9fbd
00000300: 084a 533d fd4e a7bd 55d6 d43d 7eda 363d
00000310: 3fe6 aabd 2bb1 5d3d b4d2 d53d fa66 313d
00000320: 1380 2f3d 79c4 f83d 8a28 173b 9fbf b0bd
00000330: f464 81bd 386c b43d e1f2 abbd be91 6cbd
00000340: 86b4 87bc a044 c43d a4a4 e5bd 9c3b 363c
00000350: 512b 103c e859 05bd df8a a63c 515b d6bd
00000360: 5e21 e7bd 36d1 85bd 8afd cbbd c1de c5bd
00000370: 5b3f 08be 082d e6bd 909b 19be e5b5 723d
00000380: b56b 41bd e0e5 14be e718 f33c 13a7 8cbd
00000390: e8db c63d 5a8f 1fbe e7e7 b73c 3a77 3c3d
000003a0: 2a1d 1a3e 91ff 9d3d b952 003e c46b 423d
000003b0: c79b 04be 2497 d33c 2fbc 853b 8daf 13bd
000003c0: 7fee d73d bf23 003e 70f8 a43d a510 0c3d
000003d0: a77a eb39 c983 ab3d fcb3 cdbd ca9d 99bd
000003e0: 28f2 05be ff56 d5bd 1108 9a3d 9c81 2fbc
000003f0: c2ed 053e e8fb 803c bed6 173e 0c8e a23d
-0.11890553 0.13651773 0.083657615 -0.01691342 -0.069408044 -0.096698344 -0.00814883 -0.06791603
-0.012758205 0.016315272 0.039855473 0.048766013 -0.09497044 0.09557958 -0.11711841 -0.020763086
0.08916798 0.0939122 0.06460801 0.089162804 -0.13860622 -0.095880225 -0.024742836 -0.011231391
-0.07916087 0.05120116 0.10954756 0.11582307 -0.059086736 -0.07148501 -0.041467007 0.0129074445
-0.035398997 -0.0923949 0.06679885 -0.107951194 0.044244494 -0.04156252 -0.076278664 0.11432024
-0.0042673615 -0.11082649 0.09555485 -0.0967212 0.09207318 0.018922457 0.107055835 -0.08124426
-0.062467508 0.0782154 -0.13191631 -0.109812625 0.04360518 -0.09406695 -0.06385251 0.040534995
-0.015273824 0.091175444 -0.06384095 0.083443776 -0.105663046 0.016367571 -0.014298883 -0.11579512
-0.079275325 -0.03963625 0.045792636 0.005326133 0.003326429 0.080111325 0.023593241 0.1331918
0.0058609326 0.008453701 -0.022228869 0.014762876 0.018385245 -0.14853373 -0.110526815 0.07963816
0.13172813 -0.03912192 0.13185716 0.02950966 -0.030031554 -0.11630444 -0.102625266 -0.02679914
-0.10498014 -0.10553048 -0.03628122 0.005817076 -0.03514797 0.11049932 0.09764661 -0.06866791
0.07433946 0.013129152 -0.13013381 -0.00067870546 0.1016359 -0.08822722 -0.14599924 0.0575958
0.05363486 -0.10428687 0.038984105 0.0071880524 -0.0493758 -0.046696812 0.10520715 0.07401008
-0.020595128 -0.039442737 -0.054361347 -0.03166398 -0.0033771116 0.051427945 0.023864433 -0.07253592
0.103002205 0.10153843 -0.018494671 -0.045642424 0.029835168 0.041519538 0.064767756 -0.08300243
-0.053628184 -0.046766862 0.059989996 -0.10581747 0.109772496 0.03428364 -0.06425778 -0.035478834
0.07715645 0.07672268 0.041531198 -0.040330324 0.041817177 -0.052297007 0.086478084 -0.1116523
-0.07395189 0.015365826 0.057864316 0.064663135 0.12933809 -0.0666875 0.13958447 -0.06812355
-0.10982488 0.0320413 0.10514116 0.06361224 -0.08511366 -0.06992394 -0.080983914 0.07047901
0.13751397 0.014388759 -0.026050076 -0.00779087 0.10649772 -0.057467096 -0.08537544 0.035321746
-0.022342617 0.06625944 -0.06248334 0.084166996 0.02436683 0.027325988 0.12053066 -0.0462876
0.015404519 -0.09198171 0.089815356 -0.0019170687 0.10639171 0.10578844 -0.048294045 0.01250113
-0.012406191 -0.058804817 -0.011630101 -0.13137329 0.05085309 0.033922806 -0.08143755 -0.07773091
0.051584274 -0.08169363 0.10392443 0.044641964 -0.08344697 0.05412404 0.10440579 0.043311097
0.04284675 0.12146849 0.0023064935 -0.08630299 -0.063180834 0.088097036 -0.08395935 -0.057756178
-0.016565572 0.09583402 -0.11213043 0.01112261 0.00879939 -0.032556444 0.02032989 -0.10466636
-0.11285661 -0.065340444 -0.09960468 -0.096616276 -0.13305418 -0.11239058 -0.15000749 0.0592555
-0.047221858 -0.14540815 0.02967496 -0.068678044 0.097099125 -0.15582028 0.022449447 0.04601214
0.15050188 0.07714761 0.12531556 0.047466055 -0.1295005 0.025828905 0.004081271 -0.03605609
0.105435364 0.12513636 0.08055198 0.03419556 0.00044914076 0.083747454 -0.10044095 -0.07500799
-0.13080657 -0.10416984 0.0752107 -0.010712054 0.13078979 0.015745118 0.14828011 0.079372495

regressors.regressors.regressor@tgt:t2/c2__cat.0.bias f4 [16]
00000000: 2b9f 48be b28d 913c c3c9 14be 201c d0bd
00000010: c341 78bd 9d9b 28be 6b53 3e3e 95b4 823e
00000020: 0d86 413e 1668 8c3d 7501 3f3e 68f3 1a3e
00000030: 08d8 12bc 435e 753d 12ce af3d 68f4 e23d
-0.19591968 0.01776776 -0.14530091 -0.101616144 -0.06060959 -0.16465612 0.18586509 0.25528398
0.18898793 0.0685579 0.186529 0.15131915 -0.008962639 0.059904348 0.08584227 0.11081773

regressors.regressors.regressor@tgt:t3/c3__cat.0.weight f4 [64, 51]
00000000: ef3a 1ebe 87ea da3d 44d6 a6bd a574 ac3d
00000010: f4ae 663d 4486 02be 304a 9d3c c04e 8d3d
00000020: 89c4 8bbd cedd febc 4364 033e c027 e2bd
00000030: e820 39bd 26ca 7e3d d30a 773d 2115 f33d
00000040: 982e dfbd 774e 51bd 4ed2 313d 74d8 a4bd
00000050: 6e93 cbbd 9598 663d 8798 05bd 99e0 f33d
00000060: 112b ef3c a5f2 0ebd 714b 02be 72d9 a83d
00000070: 6f4f 073c 24db d7bd df1d efbc 9301 cc3b
00000080: d20c eabd 6a6a c7bc 603d e83d b770 013e
00000090: 317c 9bbd e106 b33d 21c8 263e 529b a7bd
000000a0: f484 ae3d 1cf6 d7bd 4434 dc3d 4d62 d73c
000000b0: 8b1e fb3c 82eb b8bd 67d7 7cbd f534 bfbc
000000c0: 875c 023d c33a 82ba e9fe 3ebd 1e64 d1bd
000000d0: 6c7f 8cbd c477 abbd 870e c13d 35a1 11be
000000e0: e1bd cb3d 2a17 aebd 7a34 cf3d fa77 08bd
000000f0: ff19 4f3c 1e94 d2bd 0f29 16bd 4a45 903a
00000100: 1b25 3dbd 523d 00be 544a f43d 049a b0bd
00000110: d2b9 d63d b974 0c3e 4474 653c 65cd 1ebc
00000120: edff 23bd a9b0 0a3e a227 c03d cbe4 9bbd
00000130: 3b5c 06bd 205e 35bc 21ae 583d 31c8 803c
00000140: 80eb 023e 42f5 963d 04cd 0cbe c11d b7bd
00000150: 9e95 fcbd d309 073e d778 cabd 349f 17bc
00000160: 1c2e 013e 31c3 3e3d 7896 9b3c 9280 403d
00000170: 13d5 ec3d d613 f4bc 5d7c 80bd ea29 e3bd
00000180: 0ede 123e a6d3 ea3d 34db 9fbb e5a0 2b3d
00000190: 499e 993d 5f3f 8dbc 04a5 9e3d c895 0bbc
000001a0: ec40 8b3c e3fb 49bd b016 dabd e93c c1bd
000001b0: bfe6 72bd 1367 cc3d da88 44bb 829c bd3d
000001c0: 90b7 6cbd e49f e23c 3c2d bdbd 16ac c23d
000001d0: 2a8d 573d 8757 6d3d 9528 efbb 413b ddbd
000001e0: 883b 99bd 83ca 32bd 3fba 10be b64a bf3d
000001f0: d0d6 173d 3379 143d ce3e d1bd 9248 953d
00000200: f0bd 893d 5608 0dbb b938 983d 621d e13d
00000210: 9eb0 55bd 33cb 663d 6c2f e23c b022 dd3d
00000220: 252b 19be edf2 5e3d 0d5e 14bc b131 9b3c
00000230: bb35 b83d 5a2f 03be c5fc e6bd 3a68 473d
00000240: 4a9a d53d 7160 3e3c 1dee a93d dc15 57bb
00000250: b843 45bd 3db4 d6bd b5de 843d be0d 6bbd
00000260: bf04 9c3d 6603 513d 378e f53d f736 08be
00000270: 3b3e d9bd 9109 d2bc 79ec 8dbd b81f 013e
00000280: 3df0 9a3d c0d3 203d 2ad5 673d 4c3c 9d3d
00000290: ac7a 94bd 9026 0bbe d5f6 0a3e 97d7 b1bd
000002a0: 83c4 97bd e290 fa3d 310f 433d e460 5fbd
000002b0: 2fea a73d 4c59 d4bc 125e 743b 3cce dc3d
000002c0: efee 2abd d92a bbbd 0086 eaba a8f4 f3bd
000002d0: 45f4 fa3d 5a83 1dbd 93e1 0abc 8919 ba3d
000002e0: 0d76 98bd 70df f9bd 8df4 ffbc 0013 07bd
000002f0: 0605 823d 621a 023d e28d 1bbe fab4 9cbd
00000300: 7d2f d8bd 9f72 ad3d ea04 c73d d66c 7b3d
00000310: 1844 f7bd e990 b1bc c057 e3bd 63be 9ebd
00000320: 2712 623c b2d1 873d 7871 e53d 183a ca3d
00000330: 5e0f b9bd 66b3 9c3c cc1f 603d a302 efbd
00000340: e9b9 9c3b 06af 913d 808b 0dbc e726 92bc
00000350: e8a5 463d 5dc1 19be de88 48bd d5b7 10bd
00000360: 1717 a2bd df56 d6bd 6755 dcbd 5721 cdbc
00000370: 617a cd3d 9e86 a33d e4e0 04be 6762 43bc
00000380: 6392 433d dac7 423d 4695 903c c1c6 0bbe
00000390: 3bfa ee3d 7ab9 4bbd 4557 bb3c ebe0 793d
000003a0: 4073 123b 7714 4a3d b273 d0bc c71b a43c
000003b0: 5f15 dfbd b9b1 343d 7fdd 05bd 86d0 c73d
000003c0: 3be3 8cbc 8722 ecbd dbae 3a3d 7657 533d
000003d0: 3c00 01bd 2e4f cfbd 278a ca3d aa9c f4bd
000003e0: 0926 26be b19b 8c3d 669a 0cbe 6e8c 083e
000003f0: 02e5 043e 7c73 04be c387 b03d e9fd dfbd
-0.15452169 0.10689264 -0.08146337 0.08420686 0.056319192 -0.12746531 0.019200414 0.06899786
-0.068245955 -0.031111624 0.12831216 -0.11042738 -0.045197397 0.062204503 0.060313057 0.118692644
-0.10897559 -0.05110022 0.043413453 -0.08049098 -0.09940229 0.056297857 -0.032616165 0.11908073
0.02919534 -0.034899373 -0.12724091 0.082445994 0.008258685 -0.10539845 -0.029189048 0.0062257736
-0.114282265 -0.024342734 0.11339831 0.12640654 -0.07592047 0.087415464 0.1628728 -0.08183922
0.085214525 -0.105449885 0.107521564 0.02629199 0.030654212 -0.090292946 -0.06172886 -0.023340682
0.031826522 -0.0009935725 -0.04662982 -0.10224174 -0.06860241 -0.08372453 0.09426599 -0.14221652
0.09948326 -0.08500512 0.10117431 -0.033317544 0.012640475 -0.10282157 -0.03666025 0.0011006978
-0.046177965 -0.12523392 0.119282395 -0.08623126 0.10484661 0.13716401 0.014004771 -0.009692525
-0.04003899 0.13543953 0.09382559 -0.07611998 -0.0328028 -0.011069804 0.052900437 0.015720459
0.12785149 0.07370998 -0.13750082 -0.08941222 -0.12333225 0.13187341 -0.098863296 -0.009254266
0.12615246 0.046572868 0.018992648 0.046997614 0.11564078 -0.029794615 -0.062737204 -0.11091979
0.1434252 0.1146615 -0.004878426 0.041901488 0.075008936 -0.017242132 0.07746318 -0.008519597
0.01699873 -0.049312484 -0.106488585 -0.09435446 -0.059302088 0.09980597 -0.0029988796 0.09258367
-0.057792246 0.027664132 -0.092371434 0.09505479 0.05262486 0.0579448 -0.007298539 -0.108023174
-0.07482058 -0.04365016 -0.14133547 0.09340422 0.037070096 0.036248397 -0.10217057 0.07289232
0.06725681 -0.0021519861 0.07432694 0.109919325 -0.05217039 0.05634613 0.027610503 0.10797632
-0.14957865 0.05443089 -0.009055627 0.018944593 0.08994623 -0.12811032 -0.11278681 0.048683383
0.10429819 0.011619673 0.0829737 -0.0032819426 -0.048160285 -0.104835965 0.064877905 -0.057386152
0.07618093 0.05102863 0.11990016 -0.13302217 -0.10607573 -0.025639327 -0.06929869 0.12609756
0.07565353 0.03926444 0.056599773 0.07677516 -0.0724996 -0.13588929 0.13570721 -0.086836986
-0.074105285 0.122346655 0.04762191 -0.05453576 0.08198964 -0.025921486 0.0037287516 0.107815236
-0.04173177 -0.09139032 -0.0017892718 -0.11911899 0.12253622 -0.038455345 -0.008476633 0.09086902
-0.074443914 -0.122008204 -0.03124454 -0.032977104 0.063486144 0.03176344 -0.15190843 -0.07651706
-0.10555933 0.08469128 0.09717734 0.06138309 -0.12073535 -0.021675544 -0.11100721 -0.07751157
0.013798273 0.06631793 0.11203283 0.09874362 -0.09036134 0.019128513 0.054717824 -0.11670425
0.0047829044 0.07113461 -0.008639216 -0.017840816 0.048498064 -0.15015168 -0.04895865 -0.035331566
-0.0791456 -0.10465788 -0.10758477 -0.025040312 0.100331075 0.079846606 -0.12976414 -0.011925316
0.047747027 0.047553875 0.017649304 -0.13650037 0.116688214 -0.04973743 0.022868762 0.061005514
0.0022346526 0.049335923 -0.025445793 0.020032777 -0.10892748 0.044114802 -0.03268194 0.097565696
-0.017198196 -0.11530023 0.04557691 0.05159708 -0.031494364 -0.10122524 0.09889632 -0.11943944
-0.16225447 0.06865633 -0.13730773 0.1333482 0.12977985 -0.12934679 0.086196445 -0.109371014

regressors.regressors.regressor@tgt:t3/c3__cat.0.bias f4 [64]
00000000: c078 263d 7a54 2bbd df41 073d 584e 34bb
00000010: f8be 9fbd f02f ecbb 7bea 8b3e 2748 523e
00000020: dad4 3abc 2b26 633e 32ae 9f3c 27e3 583e
00000030: 15d2 423e 720f 34bd 17f9 083e a401 dbbd
00000040: 6eda fbbc eaf9 aabd c8aa 503e 1e28 ea3d
00000050: 30de cbbd e973 8a3e 637c 063d 3d78 483e
00000060: ee1d edbd fcee 663e 52f7 6fbd 0753 47bc
00000070: 5f75 febd 1e19 54bd 0edf 5d3e 8805 6a3d
00000080: cd26 00be 7ad9 db3d ef48 72bc c4cc debd
00000090: aa9b 873e f23c a7bc 6ac7 15bd 2eab 213e
000000a0: 663e 1f3d 153a e33d 18e7 79bc c3d1 09bb
000000b0: 013b 97bd eb38 833e 3e43 763d 485c 80bc
000000c0: 6998 b73d 8245 3d3c b11a 423d 858f 713c
000000d0: 3d19 6bbd 305b ae3d 2027 4b3d 622d 603d
000000e0: e1ef 6b3c af21 71bd 0e0e cebc 72d1 7f3d
000000f0: 112b 363e 27c7 e73d 97a8 e03d 7398 b7bd
0.0406425 -0.04182861 0.033021804 -0.0027512517 -0.07800096 -0.007207863 0.27327332 0.20535336
-0.011403287 0.22182529 0.019492242 0.21180402 0.19025452 -0.043960042 0.1337627 -0.10693672
-0.030743804 -0.083484486 0.20377648 0.11433433 -0.09954488 0.27041557 0.03283347 0.19577117
-0.11577974 0.22552103 -0.058585472 -0.012165791 -0.124247305 -0.051781766 0.2166712 0.05713418
-0.12514801 0.1073484 -0.014787897 -0.108789 0.2648595 -0.020414803 -0.03656713 0.15787956
0.038877867 0.11095063 -0.015252851 -0.0021029569 -0.07384301 0.25629362 0.06012272 -0.015669003
0.08964617 0.0115522165 0.047388736 0.01474369 -0.057397116 0.085134864 0.04959786 0.05473078
0.014400453 -0.058870014 -0.025153186 0.062455602 0.17789866 0.11317282 0.10969656 -0.08964624
